MobileBertForTokenClassification(
  (mobilebert): MobileBertModel(
    (embeddings): MobileBertEmbeddings(
      (word_embeddings): Embedding(30522, 128, padding_idx=0)
      (position_embeddings): Embedding(512, 512)
      (token_type_embeddings): Embedding(2, 512)
      (embedding_transformation): Linear(in_features=384, out_features=512, bias=True)
      (LayerNorm): NoNorm()
      (dropout): Dropout(p=0.0, inplace=False)
    )
    (encoder): MobileBertEncoder(
      (layer): ModuleList(
        (0): MobileBertLayer(
          (attention): MobileBertAttention(
            (self): MobileBertSelfAttention(
              (query): Linear(in_features=128, out_features=128, bias=True)
              (key): Linear(in_features=128, out_features=128, bias=True)
              (value): Linear(in_features=512, out_features=128, bias=True)
              (dropout): Dropout(p=0.1, inplace=False)
            )
            (output): MobileBertSelfOutput(
              (dense): Linear(in_features=128, out_features=128, bias=True)
              (LayerNorm): NoNorm()
            )
          )
          (intermediate): MobileBertIntermediate(
            (dense): Linear(in_features=128, out_features=512, bias=True)
          )
          (output): MobileBertOutput(
            (dense): Linear(in_features=512, out_features=128, bias=True)
            (LayerNorm): NoNorm()
            (bottleneck): OutputBottleneck(
              (dense): Linear(in_features=128, out_features=512, bias=True)
              (LayerNorm): NoNorm()
              (dropout): Dropout(p=0.0, inplace=False)
            )
          )
          (bottleneck): Bottleneck(
            (input): BottleneckLayer(
              (dense): Linear(in_features=512, out_features=128, bias=True)
              (LayerNorm): NoNorm()
            )
            (attention): BottleneckLayer(
              (dense): Linear(in_features=512, out_features=128, bias=True)
              (LayerNorm): NoNorm()
            )
          )
          (ffn): ModuleList(
            (0): FFNLayer(
              (intermediate): MobileBertIntermediate(
                (dense): Linear(in_features=128, out_features=512, bias=True)
              )
              (output): FFNOutput(
                (dense): Linear(in_features=512, out_features=128, bias=True)
                (LayerNorm): NoNorm()
              )
            )
            (1): FFNLayer(
              (intermediate): MobileBertIntermediate(
                (dense): Linear(in_features=128, out_features=512, bias=True)
              )
              (output): FFNOutput(
                (dense): Linear(in_features=512, out_features=128, bias=True)
                (LayerNorm): NoNorm()
              )
            )
            (2): FFNLayer(
              (intermediate): MobileBertIntermediate(
                (dense): Linear(in_features=128, out_features=512, bias=True)
              )
              (output): FFNOutput(
                (dense): Linear(in_features=512, out_features=128, bias=True)
                (LayerNorm): NoNorm()
              )
            )
          )
        )
        (1): MobileBertLayer(
          (attention): MobileBertAttention(
            (self): MobileBertSelfAttention(
              (query): Linear(in_features=128, out_features=128, bias=True)
              (key): Linear(in_features=128, out_features=128, bias=True)
              (value): Linear(in_features=512, out_features=128, bias=True)
              (dropout): Dropout(p=0.1, inplace=False)
            )
            (output): MobileBertSelfOutput(
              (dense): Linear(in_features=128, out_features=128, bias=True)
              (LayerNorm): NoNorm()
            )
          )
          (intermediate): MobileBertIntermediate(
            (dense): Linear(in_features=128, out_features=512, bias=True)
          )
          (output): MobileBertOutput(
            (dense): Linear(in_features=512, out_features=128, bias=True)
            (LayerNorm): NoNorm()
            (bottleneck): OutputBottleneck(
              (dense): Linear(in_features=128, out_features=512, bias=True)
              (LayerNorm): NoNorm()
              (dropout): Dropout(p=0.0, inplace=False)
            )
          )
          (bottleneck): Bottleneck(
            (input): BottleneckLayer(
              (dense): Linear(in_features=512, out_features=128, bias=True)
              (LayerNorm): NoNorm()
            )
            (attention): BottleneckLayer(
              (dense): Linear(in_features=512, out_features=128, bias=True)
              (LayerNorm): NoNorm()
            )
          )
          (ffn): ModuleList(
            (0): FFNLayer(
              (intermediate): MobileBertIntermediate(
                (dense): Linear(in_features=128, out_features=512, bias=True)
              )
              (output): FFNOutput(
                (dense): Linear(in_features=512, out_features=128, bias=True)
                (LayerNorm): NoNorm()
              )
            )
            (1): FFNLayer(
              (intermediate): MobileBertIntermediate(
                (dense): Linear(in_features=128, out_features=512, bias=True)
              )
              (output): FFNOutput(
                (dense): Linear(in_features=512, out_features=128, bias=True)
                (LayerNorm): NoNorm()
              )
            )
            (2): FFNLayer(
              (intermediate): MobileBertIntermediate(
                (dense): Linear(in_features=128, out_features=512, bias=True)
              )
              (output): FFNOutput(
                (dense): Linear(in_features=512, out_features=128, bias=True)
                (LayerNorm): NoNorm()
              )
            )
          )
        )
        (2): MobileBertLayer(
          (attention): MobileBertAttention(
            (self): MobileBertSelfAttention(
              (query): Linear(in_features=128, out_features=128, bias=True)
              (key): Linear(in_features=128, out_features=128, bias=True)
              (value): Linear(in_features=512, out_features=128, bias=True)
              (dropout): Dropout(p=0.1, inplace=False)
            )
            (output): MobileBertSelfOutput(
              (dense): Linear(in_features=128, out_features=128, bias=True)
              (LayerNorm): NoNorm()
            )
          )
          (intermediate): MobileBertIntermediate(
            (dense): Linear(in_features=128, out_features=512, bias=True)
          )
          (output): MobileBertOutput(
            (dense): Linear(in_features=512, out_features=128, bias=True)
            (LayerNorm): NoNorm()
            (bottleneck): OutputBottleneck(
              (dense): Linear(in_features=128, out_features=512, bias=True)
              (LayerNorm): NoNorm()
              (dropout): Dropout(p=0.0, inplace=False)
            )
          )
          (bottleneck): Bottleneck(
            (input): BottleneckLayer(
              (dense): Linear(in_features=512, out_features=128, bias=True)
              (LayerNorm): NoNorm()
            )
            (attention): BottleneckLayer(
              (dense): Linear(in_features=512, out_features=128, bias=True)
              (LayerNorm): NoNorm()
            )
          )
          (ffn): ModuleList(
            (0): FFNLayer(
              (intermediate): MobileBertIntermediate(
                (dense): Linear(in_features=128, out_features=512, bias=True)
              )
              (output): FFNOutput(
                (dense): Linear(in_features=512, out_features=128, bias=True)
                (LayerNorm): NoNorm()
              )
            )
            (1): FFNLayer(
              (intermediate): MobileBertIntermediate(
                (dense): Linear(in_features=128, out_features=512, bias=True)
              )
              (output): FFNOutput(
                (dense): Linear(in_features=512, out_features=128, bias=True)
                (LayerNorm): NoNorm()
              )
            )
            (2): FFNLayer(
              (intermediate): MobileBertIntermediate(
                (dense): Linear(in_features=128, out_features=512, bias=True)
              )
              (output): FFNOutput(
                (dense): Linear(in_features=512, out_features=128, bias=True)
                (LayerNorm): NoNorm()
              )
            )
          )
        )
        (3): MobileBertLayer(
          (attention): MobileBertAttention(
            (self): MobileBertSelfAttention(
              (query): Linear(in_features=128, out_features=128, bias=True)
              (key): Linear(in_features=128, out_features=128, bias=True)
              (value): Linear(in_features=512, out_features=128, bias=True)
              (dropout): Dropout(p=0.1, inplace=False)
            )
            (output): MobileBertSelfOutput(
              (dense): Linear(in_features=128, out_features=128, bias=True)
              (LayerNorm): NoNorm()
            )
          )
          (intermediate): MobileBertIntermediate(
            (dense): Linear(in_features=128, out_features=512, bias=True)
          )
          (output): MobileBertOutput(
            (dense): Linear(in_features=512, out_features=128, bias=True)
            (LayerNorm): NoNorm()
            (bottleneck): OutputBottleneck(
              (dense): Linear(in_features=128, out_features=512, bias=True)
              (LayerNorm): NoNorm()
              (dropout): Dropout(p=0.0, inplace=False)
            )
          )
          (bottleneck): Bottleneck(
            (input): BottleneckLayer(
              (dense): Linear(in_features=512, out_features=128, bias=True)
              (LayerNorm): NoNorm()
            )
            (attention): BottleneckLayer(
              (dense): Linear(in_features=512, out_features=128, bias=True)
              (LayerNorm): NoNorm()
            )
          )
          (ffn): ModuleList(
            (0): FFNLayer(
              (intermediate): MobileBertIntermediate(
                (dense): Linear(in_features=128, out_features=512, bias=True)
              )
              (output): FFNOutput(
                (dense): Linear(in_features=512, out_features=128, bias=True)
                (LayerNorm): NoNorm()
              )
            )
            (1): FFNLayer(
              (intermediate): MobileBertIntermediate(
                (dense): Linear(in_features=128, out_features=512, bias=True)
              )
              (output): FFNOutput(
                (dense): Linear(in_features=512, out_features=128, bias=True)
                (LayerNorm): NoNorm()
              )
            )
            (2): FFNLayer(
              (intermediate): MobileBertIntermediate(
                (dense): Linear(in_features=128, out_features=512, bias=True)
              )
              (output): FFNOutput(
                (dense): Linear(in_features=512, out_features=128, bias=True)
                (LayerNorm): NoNorm()
              )
            )
          )
        )
        (4): MobileBertLayer(
          (attention): MobileBertAttention(
            (self): MobileBertSelfAttention(
              (query): Linear(in_features=128, out_features=128, bias=True)
              (key): Linear(in_features=128, out_features=128, bias=True)
              (value): Linear(in_features=512, out_features=128, bias=True)
              (dropout): Dropout(p=0.1, inplace=False)
            )
            (output): MobileBertSelfOutput(
              (dense): Linear(in_features=128, out_features=128, bias=True)
              (LayerNorm): NoNorm()
            )
          )
          (intermediate): MobileBertIntermediate(
            (dense): Linear(in_features=128, out_features=512, bias=True)
          )
          (output): MobileBertOutput(
            (dense): Linear(in_features=512, out_features=128, bias=True)
            (LayerNorm): NoNorm()
            (bottleneck): OutputBottleneck(
              (dense): Linear(in_features=128, out_features=512, bias=True)
              (LayerNorm): NoNorm()
              (dropout): Dropout(p=0.0, inplace=False)
            )
          )
          (bottleneck): Bottleneck(
            (input): BottleneckLayer(
              (dense): Linear(in_features=512, out_features=128, bias=True)
              (LayerNorm): NoNorm()
            )
            (attention): BottleneckLayer(
              (dense): Linear(in_features=512, out_features=128, bias=True)
              (LayerNorm): NoNorm()
            )
          )
          (ffn): ModuleList(
            (0): FFNLayer(
              (intermediate): MobileBertIntermediate(
                (dense): Linear(in_features=128, out_features=512, bias=True)
              )
              (output): FFNOutput(
                (dense): Linear(in_features=512, out_features=128, bias=True)
                (LayerNorm): NoNorm()
              )
            )
            (1): FFNLayer(
              (intermediate): MobileBertIntermediate(
                (dense): Linear(in_features=128, out_features=512, bias=True)
              )
              (output): FFNOutput(
                (dense): Linear(in_features=512, out_features=128, bias=True)
                (LayerNorm): NoNorm()
              )
            )
            (2): FFNLayer(
              (intermediate): MobileBertIntermediate(
                (dense): Linear(in_features=128, out_features=512, bias=True)
              )
              (output): FFNOutput(
                (dense): Linear(in_features=512, out_features=128, bias=True)
                (LayerNorm): NoNorm()
              )
            )
          )
        )
        (5): MobileBertLayer(
          (attention): MobileBertAttention(
            (self): MobileBertSelfAttention(
              (query): Linear(in_features=128, out_features=128, bias=True)
              (key): Linear(in_features=128, out_features=128, bias=True)
              (value): Linear(in_features=512, out_features=128, bias=True)
              (dropout): Dropout(p=0.1, inplace=False)
            )
            (output): MobileBertSelfOutput(
              (dense): Linear(in_features=128, out_features=128, bias=True)
              (LayerNorm): NoNorm()
            )
          )
          (intermediate): MobileBertIntermediate(
            (dense): Linear(in_features=128, out_features=512, bias=True)
          )
          (output): MobileBertOutput(
            (dense): Linear(in_features=512, out_features=128, bias=True)
            (LayerNorm): NoNorm()
            (bottleneck): OutputBottleneck(
              (dense): Linear(in_features=128, out_features=512, bias=True)
              (LayerNorm): NoNorm()
              (dropout): Dropout(p=0.0, inplace=False)
            )
          )
          (bottleneck): Bottleneck(
            (input): BottleneckLayer(
              (dense): Linear(in_features=512, out_features=128, bias=True)
              (LayerNorm): NoNorm()
            )
            (attention): BottleneckLayer(
              (dense): Linear(in_features=512, out_features=128, bias=True)
              (LayerNorm): NoNorm()
            )
          )
          (ffn): ModuleList(
            (0): FFNLayer(
              (intermediate): MobileBertIntermediate(
                (dense): Linear(in_features=128, out_features=512, bias=True)
              )
              (output): FFNOutput(
                (dense): Linear(in_features=512, out_features=128, bias=True)
                (LayerNorm): NoNorm()
              )
            )
            (1): FFNLayer(
              (intermediate): MobileBertIntermediate(
                (dense): Linear(in_features=128, out_features=512, bias=True)
              )
              (output): FFNOutput(
                (dense): Linear(in_features=512, out_features=128, bias=True)
                (LayerNorm): NoNorm()
              )
            )
            (2): FFNLayer(
              (intermediate): MobileBertIntermediate(
                (dense): Linear(in_features=128, out_features=512, bias=True)
              )
              (output): FFNOutput(
                (dense): Linear(in_features=512, out_features=128, bias=True)
                (LayerNorm): NoNorm()
              )
            )
          )
        )
        (6): MobileBertLayer(
          (attention): MobileBertAttention(
            (self): MobileBertSelfAttention(
              (query): Linear(in_features=128, out_features=128, bias=True)
              (key): Linear(in_features=128, out_features=128, bias=True)
              (value): Linear(in_features=512, out_features=128, bias=True)
              (dropout): Dropout(p=0.1, inplace=False)
            )
            (output): MobileBertSelfOutput(
              (dense): Linear(in_features=128, out_features=128, bias=True)
              (LayerNorm): NoNorm()
            )
          )
          (intermediate): MobileBertIntermediate(
            (dense): Linear(in_features=128, out_features=512, bias=True)
          )
          (output): MobileBertOutput(
            (dense): Linear(in_features=512, out_features=128, bias=True)
            (LayerNorm): NoNorm()
            (bottleneck): OutputBottleneck(
              (dense): Linear(in_features=128, out_features=512, bias=True)
              (LayerNorm): NoNorm()
              (dropout): Dropout(p=0.0, inplace=False)
            )
          )
          (bottleneck): Bottleneck(
            (input): BottleneckLayer(
              (dense): Linear(in_features=512, out_features=128, bias=True)
              (LayerNorm): NoNorm()
            )
            (attention): BottleneckLayer(
              (dense): Linear(in_features=512, out_features=128, bias=True)
              (LayerNorm): NoNorm()
            )
          )
          (ffn): ModuleList(
            (0): FFNLayer(
              (intermediate): MobileBertIntermediate(
                (dense): Linear(in_features=128, out_features=512, bias=True)
              )
              (output): FFNOutput(
                (dense): Linear(in_features=512, out_features=128, bias=True)
                (LayerNorm): NoNorm()
              )
            )
            (1): FFNLayer(
              (intermediate): MobileBertIntermediate(
                (dense): Linear(in_features=128, out_features=512, bias=True)
              )
              (output): FFNOutput(
                (dense): Linear(in_features=512, out_features=128, bias=True)
                (LayerNorm): NoNorm()
              )
            )
            (2): FFNLayer(
              (intermediate): MobileBertIntermediate(
                (dense): Linear(in_features=128, out_features=512, bias=True)
              )
              (output): FFNOutput(
                (dense): Linear(in_features=512, out_features=128, bias=True)
                (LayerNorm): NoNorm()
              )
            )
          )
        )
        (7): MobileBertLayer(
          (attention): MobileBertAttention(
            (self): MobileBertSelfAttention(
              (query): Linear(in_features=128, out_features=128, bias=True)
              (key): Linear(in_features=128, out_features=128, bias=True)
              (value): Linear(in_features=512, out_features=128, bias=True)
              (dropout): Dropout(p=0.1, inplace=False)
            )
            (output): MobileBertSelfOutput(
              (dense): Linear(in_features=128, out_features=128, bias=True)
              (LayerNorm): NoNorm()
            )
          )
          (intermediate): MobileBertIntermediate(
            (dense): Linear(in_features=128, out_features=512, bias=True)
          )
          (output): MobileBertOutput(
            (dense): Linear(in_features=512, out_features=128, bias=True)
            (LayerNorm): NoNorm()
            (bottleneck): OutputBottleneck(
              (dense): Linear(in_features=128, out_features=512, bias=True)
              (LayerNorm): NoNorm()
              (dropout): Dropout(p=0.0, inplace=False)
            )
          )
          (bottleneck): Bottleneck(
            (input): BottleneckLayer(
              (dense): Linear(in_features=512, out_features=128, bias=True)
              (LayerNorm): NoNorm()
            )
            (attention): BottleneckLayer(
              (dense): Linear(in_features=512, out_features=128, bias=True)
              (LayerNorm): NoNorm()
            )
          )
          (ffn): ModuleList(
            (0): FFNLayer(
              (intermediate): MobileBertIntermediate(
                (dense): Linear(in_features=128, out_features=512, bias=True)
              )
              (output): FFNOutput(
                (dense): Linear(in_features=512, out_features=128, bias=True)
                (LayerNorm): NoNorm()
              )
            )
            (1): FFNLayer(
              (intermediate): MobileBertIntermediate(
                (dense): Linear(in_features=128, out_features=512, bias=True)
              )
              (output): FFNOutput(
                (dense): Linear(in_features=512, out_features=128, bias=True)
                (LayerNorm): NoNorm()
              )
            )
            (2): FFNLayer(
              (intermediate): MobileBertIntermediate(
                (dense): Linear(in_features=128, out_features=512, bias=True)
              )
              (output): FFNOutput(
                (dense): Linear(in_features=512, out_features=128, bias=True)
                (LayerNorm): NoNorm()
              )
            )
          )
        )
        (8): MobileBertLayer(
          (attention): MobileBertAttention(
            (self): MobileBertSelfAttention(
              (query): Linear(in_features=128, out_features=128, bias=True)
              (key): Linear(in_features=128, out_features=128, bias=True)
              (value): Linear(in_features=512, out_features=128, bias=True)
              (dropout): Dropout(p=0.1, inplace=False)
            )
            (output): MobileBertSelfOutput(
              (dense): Linear(in_features=128, out_features=128, bias=True)
              (LayerNorm): NoNorm()
            )
          )
          (intermediate): MobileBertIntermediate(
            (dense): Linear(in_features=128, out_features=512, bias=True)
          )
          (output): MobileBertOutput(
            (dense): Linear(in_features=512, out_features=128, bias=True)
            (LayerNorm): NoNorm()
            (bottleneck): OutputBottleneck(
              (dense): Linear(in_features=128, out_features=512, bias=True)
              (LayerNorm): NoNorm()
              (dropout): Dropout(p=0.0, inplace=False)
            )
          )
          (bottleneck): Bottleneck(
            (input): BottleneckLayer(
              (dense): Linear(in_features=512, out_features=128, bias=True)
              (LayerNorm): NoNorm()
            )
            (attention): BottleneckLayer(
              (dense): Linear(in_features=512, out_features=128, bias=True)
              (LayerNorm): NoNorm()
            )
          )
          (ffn): ModuleList(
            (0): FFNLayer(
              (intermediate): MobileBertIntermediate(
                (dense): Linear(in_features=128, out_features=512, bias=True)
              )
              (output): FFNOutput(
                (dense): Linear(in_features=512, out_features=128, bias=True)
                (LayerNorm): NoNorm()
              )
            )
            (1): FFNLayer(
              (intermediate): MobileBertIntermediate(
                (dense): Linear(in_features=128, out_features=512, bias=True)
              )
              (output): FFNOutput(
                (dense): Linear(in_features=512, out_features=128, bias=True)
                (LayerNorm): NoNorm()
              )
            )
            (2): FFNLayer(
              (intermediate): MobileBertIntermediate(
                (dense): Linear(in_features=128, out_features=512, bias=True)
              )
              (output): FFNOutput(
                (dense): Linear(in_features=512, out_features=128, bias=True)
                (LayerNorm): NoNorm()
              )
            )
          )
        )
        (9): MobileBertLayer(
          (attention): MobileBertAttention(
            (self): MobileBertSelfAttention(
              (query): Linear(in_features=128, out_features=128, bias=True)
              (key): Linear(in_features=128, out_features=128, bias=True)
              (value): Linear(in_features=512, out_features=128, bias=True)
              (dropout): Dropout(p=0.1, inplace=False)
            )
            (output): MobileBertSelfOutput(
              (dense): Linear(in_features=128, out_features=128, bias=True)
              (LayerNorm): NoNorm()
            )
          )
          (intermediate): MobileBertIntermediate(
            (dense): Linear(in_features=128, out_features=512, bias=True)
          )
          (output): MobileBertOutput(
            (dense): Linear(in_features=512, out_features=128, bias=True)
            (LayerNorm): NoNorm()
            (bottleneck): OutputBottleneck(
              (dense): Linear(in_features=128, out_features=512, bias=True)
              (LayerNorm): NoNorm()
              (dropout): Dropout(p=0.0, inplace=False)
            )
          )
          (bottleneck): Bottleneck(
            (input): BottleneckLayer(
              (dense): Linear(in_features=512, out_features=128, bias=True)
              (LayerNorm): NoNorm()
            )
            (attention): BottleneckLayer(
              (dense): Linear(in_features=512, out_features=128, bias=True)
              (LayerNorm): NoNorm()
            )
          )
          (ffn): ModuleList(
            (0): FFNLayer(
              (intermediate): MobileBertIntermediate(
                (dense): Linear(in_features=128, out_features=512, bias=True)
              )
              (output): FFNOutput(
                (dense): Linear(in_features=512, out_features=128, bias=True)
                (LayerNorm): NoNorm()
              )
            )
            (1): FFNLayer(
              (intermediate): MobileBertIntermediate(
                (dense): Linear(in_features=128, out_features=512, bias=True)
              )
              (output): FFNOutput(
                (dense): Linear(in_features=512, out_features=128, bias=True)
                (LayerNorm): NoNorm()
              )
            )
            (2): FFNLayer(
              (intermediate): MobileBertIntermediate(
                (dense): Linear(in_features=128, out_features=512, bias=True)
              )
              (output): FFNOutput(
                (dense): Linear(in_features=512, out_features=128, bias=True)
                (LayerNorm): NoNorm()
              )
            )
          )
        )
        (10): MobileBertLayer(
          (attention): MobileBertAttention(
            (self): MobileBertSelfAttention(
              (query): Linear(in_features=128, out_features=128, bias=True)
              (key): Linear(in_features=128, out_features=128, bias=True)
              (value): Linear(in_features=512, out_features=128, bias=True)
              (dropout): Dropout(p=0.1, inplace=False)
            )
            (output): MobileBertSelfOutput(
              (dense): Linear(in_features=128, out_features=128, bias=True)
              (LayerNorm): NoNorm()
            )
          )
          (intermediate): MobileBertIntermediate(
            (dense): Linear(in_features=128, out_features=512, bias=True)
          )
          (output): MobileBertOutput(
            (dense): Linear(in_features=512, out_features=128, bias=True)
            (LayerNorm): NoNorm()
            (bottleneck): OutputBottleneck(
              (dense): Linear(in_features=128, out_features=512, bias=True)
              (LayerNorm): NoNorm()
              (dropout): Dropout(p=0.0, inplace=False)
            )
          )
          (bottleneck): Bottleneck(
            (input): BottleneckLayer(
              (dense): Linear(in_features=512, out_features=128, bias=True)
              (LayerNorm): NoNorm()
            )
            (attention): BottleneckLayer(
              (dense): Linear(in_features=512, out_features=128, bias=True)
              (LayerNorm): NoNorm()
            )
          )
          (ffn): ModuleList(
            (0): FFNLayer(
              (intermediate): MobileBertIntermediate(
                (dense): Linear(in_features=128, out_features=512, bias=True)
              )
              (output): FFNOutput(
                (dense): Linear(in_features=512, out_features=128, bias=True)
                (LayerNorm): NoNorm()
              )
            )
            (1): FFNLayer(
              (intermediate): MobileBertIntermediate(
                (dense): Linear(in_features=128, out_features=512, bias=True)
              )
              (output): FFNOutput(
                (dense): Linear(in_features=512, out_features=128, bias=True)
                (LayerNorm): NoNorm()
              )
            )
            (2): FFNLayer(
              (intermediate): MobileBertIntermediate(
                (dense): Linear(in_features=128, out_features=512, bias=True)
              )
              (output): FFNOutput(
                (dense): Linear(in_features=512, out_features=128, bias=True)
                (LayerNorm): NoNorm()
              )
            )
          )
        )
        (11): MobileBertLayer(
          (attention): MobileBertAttention(
            (self): MobileBertSelfAttention(
              (query): Linear(in_features=128, out_features=128, bias=True)
              (key): Linear(in_features=128, out_features=128, bias=True)
              (value): Linear(in_features=512, out_features=128, bias=True)
              (dropout): Dropout(p=0.1, inplace=False)
            )
            (output): MobileBertSelfOutput(
              (dense): Linear(in_features=128, out_features=128, bias=True)
              (LayerNorm): NoNorm()
            )
          )
          (intermediate): MobileBertIntermediate(
            (dense): Linear(in_features=128, out_features=512, bias=True)
          )
          (output): MobileBertOutput(
            (dense): Linear(in_features=512, out_features=128, bias=True)
            (LayerNorm): NoNorm()
            (bottleneck): OutputBottleneck(
              (dense): Linear(in_features=128, out_features=512, bias=True)
              (LayerNorm): NoNorm()
              (dropout): Dropout(p=0.0, inplace=False)
            )
          )
          (bottleneck): Bottleneck(
            (input): BottleneckLayer(
              (dense): Linear(in_features=512, out_features=128, bias=True)
              (LayerNorm): NoNorm()
            )
            (attention): BottleneckLayer(
              (dense): Linear(in_features=512, out_features=128, bias=True)
              (LayerNorm): NoNorm()
            )
          )
          (ffn): ModuleList(
            (0): FFNLayer(
              (intermediate): MobileBertIntermediate(
                (dense): Linear(in_features=128, out_features=512, bias=True)
              )
              (output): FFNOutput(
                (dense): Linear(in_features=512, out_features=128, bias=True)
                (LayerNorm): NoNorm()
              )
            )
            (1): FFNLayer(
              (intermediate): MobileBertIntermediate(
                (dense): Linear(in_features=128, out_features=512, bias=True)
              )
              (output): FFNOutput(
                (dense): Linear(in_features=512, out_features=128, bias=True)
                (LayerNorm): NoNorm()
              )
            )
            (2): FFNLayer(
              (intermediate): MobileBertIntermediate(
                (dense): Linear(in_features=128, out_features=512, bias=True)
              )
              (output): FFNOutput(
                (dense): Linear(in_features=512, out_features=128, bias=True)
                (LayerNorm): NoNorm()
              )
            )
          )
        )
        (12): MobileBertLayer(
          (attention): MobileBertAttention(
            (self): MobileBertSelfAttention(
              (query): Linear(in_features=128, out_features=128, bias=True)
              (key): Linear(in_features=128, out_features=128, bias=True)
              (value): Linear(in_features=512, out_features=128, bias=True)
              (dropout): Dropout(p=0.1, inplace=False)
            )
            (output): MobileBertSelfOutput(
              (dense): Linear(in_features=128, out_features=128, bias=True)
              (LayerNorm): NoNorm()
            )
          )
          (intermediate): MobileBertIntermediate(
            (dense): Linear(in_features=128, out_features=512, bias=True)
          )
          (output): MobileBertOutput(
            (dense): Linear(in_features=512, out_features=128, bias=True)
            (LayerNorm): NoNorm()
            (bottleneck): OutputBottleneck(
              (dense): Linear(in_features=128, out_features=512, bias=True)
              (LayerNorm): NoNorm()
              (dropout): Dropout(p=0.0, inplace=False)
            )
          )
          (bottleneck): Bottleneck(
            (input): BottleneckLayer(
              (dense): Linear(in_features=512, out_features=128, bias=True)
              (LayerNorm): NoNorm()
            )
            (attention): BottleneckLayer(
              (dense): Linear(in_features=512, out_features=128, bias=True)
              (LayerNorm): NoNorm()
            )
          )
          (ffn): ModuleList(
            (0): FFNLayer(
              (intermediate): MobileBertIntermediate(
                (dense): Linear(in_features=128, out_features=512, bias=True)
              )
              (output): FFNOutput(
                (dense): Linear(in_features=512, out_features=128, bias=True)
                (LayerNorm): NoNorm()
              )
            )
            (1): FFNLayer(
              (intermediate): MobileBertIntermediate(
                (dense): Linear(in_features=128, out_features=512, bias=True)
              )
              (output): FFNOutput(
                (dense): Linear(in_features=512, out_features=128, bias=True)
                (LayerNorm): NoNorm()
              )
            )
            (2): FFNLayer(
              (intermediate): MobileBertIntermediate(
                (dense): Linear(in_features=128, out_features=512, bias=True)
              )
              (output): FFNOutput(
                (dense): Linear(in_features=512, out_features=128, bias=True)
                (LayerNorm): NoNorm()
              )
            )
          )
        )
        (13): MobileBertLayer(
          (attention): MobileBertAttention(
            (self): MobileBertSelfAttention(
              (query): Linear(in_features=128, out_features=128, bias=True)
              (key): Linear(in_features=128, out_features=128, bias=True)
              (value): Linear(in_features=512, out_features=128, bias=True)
              (dropout): Dropout(p=0.1, inplace=False)
            )
            (output): MobileBertSelfOutput(
              (dense): Linear(in_features=128, out_features=128, bias=True)
              (LayerNorm): NoNorm()
            )
          )
          (intermediate): MobileBertIntermediate(
            (dense): Linear(in_features=128, out_features=512, bias=True)
          )
          (output): MobileBertOutput(
            (dense): Linear(in_features=512, out_features=128, bias=True)
            (LayerNorm): NoNorm()
            (bottleneck): OutputBottleneck(
              (dense): Linear(in_features=128, out_features=512, bias=True)
              (LayerNorm): NoNorm()
              (dropout): Dropout(p=0.0, inplace=False)
            )
          )
          (bottleneck): Bottleneck(
            (input): BottleneckLayer(
              (dense): Linear(in_features=512, out_features=128, bias=True)
              (LayerNorm): NoNorm()
            )
            (attention): BottleneckLayer(
              (dense): Linear(in_features=512, out_features=128, bias=True)
              (LayerNorm): NoNorm()
            )
          )
          (ffn): ModuleList(
            (0): FFNLayer(
              (intermediate): MobileBertIntermediate(
                (dense): Linear(in_features=128, out_features=512, bias=True)
              )
              (output): FFNOutput(
                (dense): Linear(in_features=512, out_features=128, bias=True)
                (LayerNorm): NoNorm()
              )
            )
            (1): FFNLayer(
              (intermediate): MobileBertIntermediate(
                (dense): Linear(in_features=128, out_features=512, bias=True)
              )
              (output): FFNOutput(
                (dense): Linear(in_features=512, out_features=128, bias=True)
                (LayerNorm): NoNorm()
              )
            )
            (2): FFNLayer(
              (intermediate): MobileBertIntermediate(
                (dense): Linear(in_features=128, out_features=512, bias=True)
              )
              (output): FFNOutput(
                (dense): Linear(in_features=512, out_features=128, bias=True)
                (LayerNorm): NoNorm()
              )
            )
          )
        )
        (14): MobileBertLayer(
          (attention): MobileBertAttention(
            (self): MobileBertSelfAttention(
              (query): Linear(in_features=128, out_features=128, bias=True)
              (key): Linear(in_features=128, out_features=128, bias=True)
              (value): Linear(in_features=512, out_features=128, bias=True)
              (dropout): Dropout(p=0.1, inplace=False)
            )
            (output): MobileBertSelfOutput(
              (dense): Linear(in_features=128, out_features=128, bias=True)
              (LayerNorm): NoNorm()
            )
          )
          (intermediate): MobileBertIntermediate(
            (dense): Linear(in_features=128, out_features=512, bias=True)
          )
          (output): MobileBertOutput(
            (dense): Linear(in_features=512, out_features=128, bias=True)
            (LayerNorm): NoNorm()
            (bottleneck): OutputBottleneck(
              (dense): Linear(in_features=128, out_features=512, bias=True)
              (LayerNorm): NoNorm()
              (dropout): Dropout(p=0.0, inplace=False)
            )
          )
          (bottleneck): Bottleneck(
            (input): BottleneckLayer(
              (dense): Linear(in_features=512, out_features=128, bias=True)
              (LayerNorm): NoNorm()
            )
            (attention): BottleneckLayer(
              (dense): Linear(in_features=512, out_features=128, bias=True)
              (LayerNorm): NoNorm()
            )
          )
          (ffn): ModuleList(
            (0): FFNLayer(
              (intermediate): MobileBertIntermediate(
                (dense): Linear(in_features=128, out_features=512, bias=True)
              )
              (output): FFNOutput(
                (dense): Linear(in_features=512, out_features=128, bias=True)
                (LayerNorm): NoNorm()
              )
            )
            (1): FFNLayer(
              (intermediate): MobileBertIntermediate(
                (dense): Linear(in_features=128, out_features=512, bias=True)
              )
              (output): FFNOutput(
                (dense): Linear(in_features=512, out_features=128, bias=True)
                (LayerNorm): NoNorm()
              )
            )
            (2): FFNLayer(
              (intermediate): MobileBertIntermediate(
                (dense): Linear(in_features=128, out_features=512, bias=True)
              )
              (output): FFNOutput(
                (dense): Linear(in_features=512, out_features=128, bias=True)
                (LayerNorm): NoNorm()
              )
            )
          )
        )
        (15): MobileBertLayer(
          (attention): MobileBertAttention(
            (self): MobileBertSelfAttention(
              (query): Linear(in_features=128, out_features=128, bias=True)
              (key): Linear(in_features=128, out_features=128, bias=True)
              (value): Linear(in_features=512, out_features=128, bias=True)
              (dropout): Dropout(p=0.1, inplace=False)
            )
            (output): MobileBertSelfOutput(
              (dense): Linear(in_features=128, out_features=128, bias=True)
              (LayerNorm): NoNorm()
            )
          )
          (intermediate): MobileBertIntermediate(
            (dense): Linear(in_features=128, out_features=512, bias=True)
          )
          (output): MobileBertOutput(
            (dense): Linear(in_features=512, out_features=128, bias=True)
            (LayerNorm): NoNorm()
            (bottleneck): OutputBottleneck(
              (dense): Linear(in_features=128, out_features=512, bias=True)
              (LayerNorm): NoNorm()
              (dropout): Dropout(p=0.0, inplace=False)
            )
          )
          (bottleneck): Bottleneck(
            (input): BottleneckLayer(
              (dense): Linear(in_features=512, out_features=128, bias=True)
              (LayerNorm): NoNorm()
            )
            (attention): BottleneckLayer(
              (dense): Linear(in_features=512, out_features=128, bias=True)
              (LayerNorm): NoNorm()
            )
          )
          (ffn): ModuleList(
            (0): FFNLayer(
              (intermediate): MobileBertIntermediate(
                (dense): Linear(in_features=128, out_features=512, bias=True)
              )
              (output): FFNOutput(
                (dense): Linear(in_features=512, out_features=128, bias=True)
                (LayerNorm): NoNorm()
              )
            )
            (1): FFNLayer(
              (intermediate): MobileBertIntermediate(
                (dense): Linear(in_features=128, out_features=512, bias=True)
              )
              (output): FFNOutput(
                (dense): Linear(in_features=512, out_features=128, bias=True)
                (LayerNorm): NoNorm()
              )
            )
            (2): FFNLayer(
              (intermediate): MobileBertIntermediate(
                (dense): Linear(in_features=128, out_features=512, bias=True)
              )
              (output): FFNOutput(
                (dense): Linear(in_features=512, out_features=128, bias=True)
                (LayerNorm): NoNorm()
              )
            )
          )
        )
        (16): MobileBertLayer(
          (attention): MobileBertAttention(
            (self): MobileBertSelfAttention(
              (query): Linear(in_features=128, out_features=128, bias=True)
              (key): Linear(in_features=128, out_features=128, bias=True)
              (value): Linear(in_features=512, out_features=128, bias=True)
              (dropout): Dropout(p=0.1, inplace=False)
            )
            (output): MobileBertSelfOutput(
              (dense): Linear(in_features=128, out_features=128, bias=True)
              (LayerNorm): NoNorm()
            )
          )
          (intermediate): MobileBertIntermediate(
            (dense): Linear(in_features=128, out_features=512, bias=True)
          )
          (output): MobileBertOutput(
            (dense): Linear(in_features=512, out_features=128, bias=True)
            (LayerNorm): NoNorm()
            (bottleneck): OutputBottleneck(
              (dense): Linear(in_features=128, out_features=512, bias=True)
              (LayerNorm): NoNorm()
              (dropout): Dropout(p=0.0, inplace=False)
            )
          )
          (bottleneck): Bottleneck(
            (input): BottleneckLayer(
              (dense): Linear(in_features=512, out_features=128, bias=True)
              (LayerNorm): NoNorm()
            )
            (attention): BottleneckLayer(
              (dense): Linear(in_features=512, out_features=128, bias=True)
              (LayerNorm): NoNorm()
            )
          )
          (ffn): ModuleList(
            (0): FFNLayer(
              (intermediate): MobileBertIntermediate(
                (dense): Linear(in_features=128, out_features=512, bias=True)
              )
              (output): FFNOutput(
                (dense): Linear(in_features=512, out_features=128, bias=True)
                (LayerNorm): NoNorm()
              )
            )
            (1): FFNLayer(
              (intermediate): MobileBertIntermediate(
                (dense): Linear(in_features=128, out_features=512, bias=True)
              )
              (output): FFNOutput(
                (dense): Linear(in_features=512, out_features=128, bias=True)
                (LayerNorm): NoNorm()
              )
            )
            (2): FFNLayer(
              (intermediate): MobileBertIntermediate(
                (dense): Linear(in_features=128, out_features=512, bias=True)
              )
              (output): FFNOutput(
                (dense): Linear(in_features=512, out_features=128, bias=True)
                (LayerNorm): NoNorm()
              )
            )
          )
        )
        (17): MobileBertLayer(
          (attention): MobileBertAttention(
            (self): MobileBertSelfAttention(
              (query): Linear(in_features=128, out_features=128, bias=True)
              (key): Linear(in_features=128, out_features=128, bias=True)
              (value): Linear(in_features=512, out_features=128, bias=True)
              (dropout): Dropout(p=0.1, inplace=False)
            )
            (output): MobileBertSelfOutput(
              (dense): Linear(in_features=128, out_features=128, bias=True)
              (LayerNorm): NoNorm()
            )
          )
          (intermediate): MobileBertIntermediate(
            (dense): Linear(in_features=128, out_features=512, bias=True)
          )
          (output): MobileBertOutput(
            (dense): Linear(in_features=512, out_features=128, bias=True)
            (LayerNorm): NoNorm()
            (bottleneck): OutputBottleneck(
              (dense): Linear(in_features=128, out_features=512, bias=True)
              (LayerNorm): NoNorm()
              (dropout): Dropout(p=0.0, inplace=False)
            )
          )
          (bottleneck): Bottleneck(
            (input): BottleneckLayer(
              (dense): Linear(in_features=512, out_features=128, bias=True)
              (LayerNorm): NoNorm()
            )
            (attention): BottleneckLayer(
              (dense): Linear(in_features=512, out_features=128, bias=True)
              (LayerNorm): NoNorm()
            )
          )
          (ffn): ModuleList(
            (0): FFNLayer(
              (intermediate): MobileBertIntermediate(
                (dense): Linear(in_features=128, out_features=512, bias=True)
              )
              (output): FFNOutput(
                (dense): Linear(in_features=512, out_features=128, bias=True)
                (LayerNorm): NoNorm()
              )
            )
            (1): FFNLayer(
              (intermediate): MobileBertIntermediate(
                (dense): Linear(in_features=128, out_features=512, bias=True)
              )
              (output): FFNOutput(
                (dense): Linear(in_features=512, out_features=128, bias=True)
                (LayerNorm): NoNorm()
              )
            )
            (2): FFNLayer(
              (intermediate): MobileBertIntermediate(
                (dense): Linear(in_features=128, out_features=512, bias=True)
              )
              (output): FFNOutput(
                (dense): Linear(in_features=512, out_features=128, bias=True)
                (LayerNorm): NoNorm()
              )
            )
          )
        )
        (18): MobileBertLayer(
          (attention): MobileBertAttention(
            (self): MobileBertSelfAttention(
              (query): Linear(in_features=128, out_features=128, bias=True)
              (key): Linear(in_features=128, out_features=128, bias=True)
              (value): Linear(in_features=512, out_features=128, bias=True)
              (dropout): Dropout(p=0.1, inplace=False)
            )
            (output): MobileBertSelfOutput(
              (dense): Linear(in_features=128, out_features=128, bias=True)
              (LayerNorm): NoNorm()
            )
          )
          (intermediate): MobileBertIntermediate(
            (dense): Linear(in_features=128, out_features=512, bias=True)
          )
          (output): MobileBertOutput(
            (dense): Linear(in_features=512, out_features=128, bias=True)
            (LayerNorm): NoNorm()
            (bottleneck): OutputBottleneck(
              (dense): Linear(in_features=128, out_features=512, bias=True)
              (LayerNorm): NoNorm()
              (dropout): Dropout(p=0.0, inplace=False)
            )
          )
          (bottleneck): Bottleneck(
            (input): BottleneckLayer(
              (dense): Linear(in_features=512, out_features=128, bias=True)
              (LayerNorm): NoNorm()
            )
            (attention): BottleneckLayer(
              (dense): Linear(in_features=512, out_features=128, bias=True)
              (LayerNorm): NoNorm()
            )
          )
          (ffn): ModuleList(
            (0): FFNLayer(
              (intermediate): MobileBertIntermediate(
                (dense): Linear(in_features=128, out_features=512, bias=True)
              )
              (output): FFNOutput(
                (dense): Linear(in_features=512, out_features=128, bias=True)
                (LayerNorm): NoNorm()
              )
            )
            (1): FFNLayer(
              (intermediate): MobileBertIntermediate(
                (dense): Linear(in_features=128, out_features=512, bias=True)
              )
              (output): FFNOutput(
                (dense): Linear(in_features=512, out_features=128, bias=True)
                (LayerNorm): NoNorm()
              )
            )
            (2): FFNLayer(
              (intermediate): MobileBertIntermediate(
                (dense): Linear(in_features=128, out_features=512, bias=True)
              )
              (output): FFNOutput(
                (dense): Linear(in_features=512, out_features=128, bias=True)
                (LayerNorm): NoNorm()
              )
            )
          )
        )
        (19): MobileBertLayer(
          (attention): MobileBertAttention(
            (self): MobileBertSelfAttention(
              (query): Linear(in_features=128, out_features=128, bias=True)
              (key): Linear(in_features=128, out_features=128, bias=True)
              (value): Linear(in_features=512, out_features=128, bias=True)
              (dropout): Dropout(p=0.1, inplace=False)
            )
            (output): MobileBertSelfOutput(
              (dense): Linear(in_features=128, out_features=128, bias=True)
              (LayerNorm): NoNorm()
            )
          )
          (intermediate): MobileBertIntermediate(
            (dense): Linear(in_features=128, out_features=512, bias=True)
          )
          (output): MobileBertOutput(
            (dense): Linear(in_features=512, out_features=128, bias=True)
            (LayerNorm): NoNorm()
            (bottleneck): OutputBottleneck(
              (dense): Linear(in_features=128, out_features=512, bias=True)
              (LayerNorm): NoNorm()
              (dropout): Dropout(p=0.0, inplace=False)
            )
          )
          (bottleneck): Bottleneck(
            (input): BottleneckLayer(
              (dense): Linear(in_features=512, out_features=128, bias=True)
              (LayerNorm): NoNorm()
            )
            (attention): BottleneckLayer(
              (dense): Linear(in_features=512, out_features=128, bias=True)
              (LayerNorm): NoNorm()
            )
          )
          (ffn): ModuleList(
            (0): FFNLayer(
              (intermediate): MobileBertIntermediate(
                (dense): Linear(in_features=128, out_features=512, bias=True)
              )
              (output): FFNOutput(
                (dense): Linear(in_features=512, out_features=128, bias=True)
                (LayerNorm): NoNorm()
              )
            )
            (1): FFNLayer(
              (intermediate): MobileBertIntermediate(
                (dense): Linear(in_features=128, out_features=512, bias=True)
              )
              (output): FFNOutput(
                (dense): Linear(in_features=512, out_features=128, bias=True)
                (LayerNorm): NoNorm()
              )
            )
            (2): FFNLayer(
              (intermediate): MobileBertIntermediate(
                (dense): Linear(in_features=128, out_features=512, bias=True)
              )
              (output): FFNOutput(
                (dense): Linear(in_features=512, out_features=128, bias=True)
                (LayerNorm): NoNorm()
              )
            )
          )
        )
        (20): MobileBertLayer(
          (attention): MobileBertAttention(
            (self): MobileBertSelfAttention(
              (query): Linear(in_features=128, out_features=128, bias=True)
              (key): Linear(in_features=128, out_features=128, bias=True)
              (value): Linear(in_features=512, out_features=128, bias=True)
              (dropout): Dropout(p=0.1, inplace=False)
            )
            (output): MobileBertSelfOutput(
              (dense): Linear(in_features=128, out_features=128, bias=True)
              (LayerNorm): NoNorm()
            )
          )
          (intermediate): MobileBertIntermediate(
            (dense): Linear(in_features=128, out_features=512, bias=True)
          )
          (output): MobileBertOutput(
            (dense): Linear(in_features=512, out_features=128, bias=True)
            (LayerNorm): NoNorm()
            (bottleneck): OutputBottleneck(
              (dense): Linear(in_features=128, out_features=512, bias=True)
              (LayerNorm): NoNorm()
              (dropout): Dropout(p=0.0, inplace=False)
            )
          )
          (bottleneck): Bottleneck(
            (input): BottleneckLayer(
              (dense): Linear(in_features=512, out_features=128, bias=True)
              (LayerNorm): NoNorm()
            )
            (attention): BottleneckLayer(
              (dense): Linear(in_features=512, out_features=128, bias=True)
              (LayerNorm): NoNorm()
            )
          )
          (ffn): ModuleList(
            (0): FFNLayer(
              (intermediate): MobileBertIntermediate(
                (dense): Linear(in_features=128, out_features=512, bias=True)
              )
              (output): FFNOutput(
                (dense): Linear(in_features=512, out_features=128, bias=True)
                (LayerNorm): NoNorm()
              )
            )
            (1): FFNLayer(
              (intermediate): MobileBertIntermediate(
                (dense): Linear(in_features=128, out_features=512, bias=True)
              )
              (output): FFNOutput(
                (dense): Linear(in_features=512, out_features=128, bias=True)
                (LayerNorm): NoNorm()
              )
            )
            (2): FFNLayer(
              (intermediate): MobileBertIntermediate(
                (dense): Linear(in_features=128, out_features=512, bias=True)
              )
              (output): FFNOutput(
                (dense): Linear(in_features=512, out_features=128, bias=True)
                (LayerNorm): NoNorm()
              )
            )
          )
        )
        (21): MobileBertLayer(
          (attention): MobileBertAttention(
            (self): MobileBertSelfAttention(
              (query): Linear(in_features=128, out_features=128, bias=True)
              (key): Linear(in_features=128, out_features=128, bias=True)
              (value): Linear(in_features=512, out_features=128, bias=True)
              (dropout): Dropout(p=0.1, inplace=False)
            )
            (output): MobileBertSelfOutput(
              (dense): Linear(in_features=128, out_features=128, bias=True)
              (LayerNorm): NoNorm()
            )
          )
          (intermediate): MobileBertIntermediate(
            (dense): Linear(in_features=128, out_features=512, bias=True)
          )
          (output): MobileBertOutput(
            (dense): Linear(in_features=512, out_features=128, bias=True)
            (LayerNorm): NoNorm()
            (bottleneck): OutputBottleneck(
              (dense): Linear(in_features=128, out_features=512, bias=True)
              (LayerNorm): NoNorm()
              (dropout): Dropout(p=0.0, inplace=False)
            )
          )
          (bottleneck): Bottleneck(
            (input): BottleneckLayer(
              (dense): Linear(in_features=512, out_features=128, bias=True)
              (LayerNorm): NoNorm()
            )
            (attention): BottleneckLayer(
              (dense): Linear(in_features=512, out_features=128, bias=True)
              (LayerNorm): NoNorm()
            )
          )
          (ffn): ModuleList(
            (0): FFNLayer(
              (intermediate): MobileBertIntermediate(
                (dense): Linear(in_features=128, out_features=512, bias=True)
              )
              (output): FFNOutput(
                (dense): Linear(in_features=512, out_features=128, bias=True)
                (LayerNorm): NoNorm()
              )
            )
            (1): FFNLayer(
              (intermediate): MobileBertIntermediate(
                (dense): Linear(in_features=128, out_features=512, bias=True)
              )
              (output): FFNOutput(
                (dense): Linear(in_features=512, out_features=128, bias=True)
                (LayerNorm): NoNorm()
              )
            )
            (2): FFNLayer(
              (intermediate): MobileBertIntermediate(
                (dense): Linear(in_features=128, out_features=512, bias=True)
              )
              (output): FFNOutput(
                (dense): Linear(in_features=512, out_features=128, bias=True)
                (LayerNorm): NoNorm()
              )
            )
          )
        )
        (22): MobileBertLayer(
          (attention): MobileBertAttention(
            (self): MobileBertSelfAttention(
              (query): Linear(in_features=128, out_features=128, bias=True)
              (key): Linear(in_features=128, out_features=128, bias=True)
              (value): Linear(in_features=512, out_features=128, bias=True)
              (dropout): Dropout(p=0.1, inplace=False)
            )
            (output): MobileBertSelfOutput(
              (dense): Linear(in_features=128, out_features=128, bias=True)
              (LayerNorm): NoNorm()
            )
          )
          (intermediate): MobileBertIntermediate(
            (dense): Linear(in_features=128, out_features=512, bias=True)
          )
          (output): MobileBertOutput(
            (dense): Linear(in_features=512, out_features=128, bias=True)
            (LayerNorm): NoNorm()
            (bottleneck): OutputBottleneck(
              (dense): Linear(in_features=128, out_features=512, bias=True)
              (LayerNorm): NoNorm()
              (dropout): Dropout(p=0.0, inplace=False)
            )
          )
          (bottleneck): Bottleneck(
            (input): BottleneckLayer(
              (dense): Linear(in_features=512, out_features=128, bias=True)
              (LayerNorm): NoNorm()
            )
            (attention): BottleneckLayer(
              (dense): Linear(in_features=512, out_features=128, bias=True)
              (LayerNorm): NoNorm()
            )
          )
          (ffn): ModuleList(
            (0): FFNLayer(
              (intermediate): MobileBertIntermediate(
                (dense): Linear(in_features=128, out_features=512, bias=True)
              )
              (output): FFNOutput(
                (dense): Linear(in_features=512, out_features=128, bias=True)
                (LayerNorm): NoNorm()
              )
            )
            (1): FFNLayer(
              (intermediate): MobileBertIntermediate(
                (dense): Linear(in_features=128, out_features=512, bias=True)
              )
              (output): FFNOutput(
                (dense): Linear(in_features=512, out_features=128, bias=True)
                (LayerNorm): NoNorm()
              )
            )
            (2): FFNLayer(
              (intermediate): MobileBertIntermediate(
                (dense): Linear(in_features=128, out_features=512, bias=True)
              )
              (output): FFNOutput(
                (dense): Linear(in_features=512, out_features=128, bias=True)
                (LayerNorm): NoNorm()
              )
            )
          )
        )
        (23): MobileBertLayer(
          (attention): MobileBertAttention(
            (self): MobileBertSelfAttention(
              (query): Linear(in_features=128, out_features=128, bias=True)
              (key): Linear(in_features=128, out_features=128, bias=True)
              (value): Linear(in_features=512, out_features=128, bias=True)
              (dropout): Dropout(p=0.1, inplace=False)
            )
            (output): MobileBertSelfOutput(
              (dense): Linear(in_features=128, out_features=128, bias=True)
              (LayerNorm): NoNorm()
            )
          )
          (intermediate): MobileBertIntermediate(
            (dense): Linear(in_features=128, out_features=512, bias=True)
          )
          (output): MobileBertOutput(
            (dense): Linear(in_features=512, out_features=128, bias=True)
            (LayerNorm): NoNorm()
            (bottleneck): OutputBottleneck(
              (dense): Linear(in_features=128, out_features=512, bias=True)
              (LayerNorm): NoNorm()
              (dropout): Dropout(p=0.0, inplace=False)
            )
          )
          (bottleneck): Bottleneck(
            (input): BottleneckLayer(
              (dense): Linear(in_features=512, out_features=128, bias=True)
              (LayerNorm): NoNorm()
            )
            (attention): BottleneckLayer(
              (dense): Linear(in_features=512, out_features=128, bias=True)
              (LayerNorm): NoNorm()
            )
          )
          (ffn): ModuleList(
            (0): FFNLayer(
              (intermediate): MobileBertIntermediate(
                (dense): Linear(in_features=128, out_features=512, bias=True)
              )
              (output): FFNOutput(
                (dense): Linear(in_features=512, out_features=128, bias=True)
                (LayerNorm): NoNorm()
              )
            )
            (1): FFNLayer(
              (intermediate): MobileBertIntermediate(
                (dense): Linear(in_features=128, out_features=512, bias=True)
              )
              (output): FFNOutput(
                (dense): Linear(in_features=512, out_features=128, bias=True)
                (LayerNorm): NoNorm()
              )
            )
            (2): FFNLayer(
              (intermediate): MobileBertIntermediate(
                (dense): Linear(in_features=128, out_features=512, bias=True)
              )
              (output): FFNOutput(
                (dense): Linear(in_features=512, out_features=128, bias=True)
                (LayerNorm): NoNorm()
              )
            )
          )
        )
      )
    )
  )
  (dropout): Dropout(p=0.0, inplace=False)
  (classifier): Linear(in_features=512, out_features=2, bias=True)
)

MobileBertForTokenClassification._actual_script_module
MobileBertForTokenClassification.forward
  graph(%self.1 : __torch__.transformers.modeling_mobilebert.MobileBertForTokenClassification,
        %input_ids : Long(17:13, 13:1),
        %attention_mask.1 : Long(17:13, 13:1)):
    %11910 : __torch__.torch.nn.modules.linear.Linear = prim::GetAttr[name="classifier"](%self.1)
…
