FlaubertWithLMHeadModel(
  (transformer): FlaubertModel(
    (position_embeddings): Embedding(512, 2048)
    (embeddings): Embedding(30145, 2048, padding_idx=2)
    (layer_norm_emb): LayerNorm((2048,), eps=1e-12, elementwise_affine=True)
    (attentions): ModuleList(
      (0): MultiHeadAttention(
        (q_lin): Linear(in_features=2048, out_features=2048, bias=True)
        (k_lin): Linear(in_features=2048, out_features=2048, bias=True)
        (v_lin): Linear(in_features=2048, out_features=2048, bias=True)
        (out_lin): Linear(in_features=2048, out_features=2048, bias=True)
      )
      (1): MultiHeadAttention(
        (q_lin): Linear(in_features=2048, out_features=2048, bias=True)
        (k_lin): Linear(in_features=2048, out_features=2048, bias=True)
        (v_lin): Linear(in_features=2048, out_features=2048, bias=True)
        (out_lin): Linear(in_features=2048, out_features=2048, bias=True)
      )
      (2): MultiHeadAttention(
        (q_lin): Linear(in_features=2048, out_features=2048, bias=True)
        (k_lin): Linear(in_features=2048, out_features=2048, bias=True)
        (v_lin): Linear(in_features=2048, out_features=2048, bias=True)
        (out_lin): Linear(in_features=2048, out_features=2048, bias=True)
      )
      (3): MultiHeadAttention(
        (q_lin): Linear(in_features=2048, out_features=2048, bias=True)
        (k_lin): Linear(in_features=2048, out_features=2048, bias=True)
        (v_lin): Linear(in_features=2048, out_features=2048, bias=True)
        (out_lin): Linear(in_features=2048, out_features=2048, bias=True)
      )
      (4): MultiHeadAttention(
        (q_lin): Linear(in_features=2048, out_features=2048, bias=True)
        (k_lin): Linear(in_features=2048, out_features=2048, bias=True)
        (v_lin): Linear(in_features=2048, out_features=2048, bias=True)
        (out_lin): Linear(in_features=2048, out_features=2048, bias=True)
      )
      (5): MultiHeadAttention(
        (q_lin): Linear(in_features=2048, out_features=2048, bias=True)
        (k_lin): Linear(in_features=2048, out_features=2048, bias=True)
        (v_lin): Linear(in_features=2048, out_features=2048, bias=True)
        (out_lin): Linear(in_features=2048, out_features=2048, bias=True)
      )
      (6): MultiHeadAttention(
        (q_lin): Linear(in_features=2048, out_features=2048, bias=True)
        (k_lin): Linear(in_features=2048, out_features=2048, bias=True)
        (v_lin): Linear(in_features=2048, out_features=2048, bias=True)
        (out_lin): Linear(in_features=2048, out_features=2048, bias=True)
      )
      (7): MultiHeadAttention(
        (q_lin): Linear(in_features=2048, out_features=2048, bias=True)
        (k_lin): Linear(in_features=2048, out_features=2048, bias=True)
        (v_lin): Linear(in_features=2048, out_features=2048, bias=True)
        (out_lin): Linear(in_features=2048, out_features=2048, bias=True)
      )
      (8): MultiHeadAttention(
        (q_lin): Linear(in_features=2048, out_features=2048, bias=True)
        (k_lin): Linear(in_features=2048, out_features=2048, bias=True)
        (v_lin): Linear(in_features=2048, out_features=2048, bias=True)
        (out_lin): Linear(in_features=2048, out_features=2048, bias=True)
      )
      (9): MultiHeadAttention(
        (q_lin): Linear(in_features=2048, out_features=2048, bias=True)
        (k_lin): Linear(in_features=2048, out_features=2048, bias=True)
        (v_lin): Linear(in_features=2048, out_features=2048, bias=True)
        (out_lin): Linear(in_features=2048, out_features=2048, bias=True)
      )
      (10): MultiHeadAttention(
        (q_lin): Linear(in_features=2048, out_features=2048, bias=True)
        (k_lin): Linear(in_features=2048, out_features=2048, bias=True)
        (v_lin): Linear(in_features=2048, out_features=2048, bias=True)
        (out_lin): Linear(in_features=2048, out_features=2048, bias=True)
      )
      (11): MultiHeadAttention(
        (q_lin): Linear(in_features=2048, out_features=2048, bias=True)
        (k_lin): Linear(in_features=2048, out_features=2048, bias=True)
        (v_lin): Linear(in_features=2048, out_features=2048, bias=True)
        (out_lin): Linear(in_features=2048, out_features=2048, bias=True)
      )
    )
    (layer_norm1): ModuleList(
      (0): LayerNorm((2048,), eps=1e-12, elementwise_affine=True)
      (1): LayerNorm((2048,), eps=1e-12, elementwise_affine=True)
      (2): LayerNorm((2048,), eps=1e-12, elementwise_affine=True)
      (3): LayerNorm((2048,), eps=1e-12, elementwise_affine=True)
      (4): LayerNorm((2048,), eps=1e-12, elementwise_affine=True)
      (5): LayerNorm((2048,), eps=1e-12, elementwise_affine=True)
      (6): LayerNorm((2048,), eps=1e-12, elementwise_affine=True)
      (7): LayerNorm((2048,), eps=1e-12, elementwise_affine=True)
      (8): LayerNorm((2048,), eps=1e-12, elementwise_affine=True)
      (9): LayerNorm((2048,), eps=1e-12, elementwise_affine=True)
      (10): LayerNorm((2048,), eps=1e-12, elementwise_affine=True)
      (11): LayerNorm((2048,), eps=1e-12, elementwise_affine=True)
    )
    (ffns): ModuleList(
      (0): TransformerFFN(
        (lin1): Linear(in_features=2048, out_features=8192, bias=True)
        (lin2): Linear(in_features=8192, out_features=2048, bias=True)
      )
      (1): TransformerFFN(
        (lin1): Linear(in_features=2048, out_features=8192, bias=True)
        (lin2): Linear(in_features=8192, out_features=2048, bias=True)
      )
      (2): TransformerFFN(
        (lin1): Linear(in_features=2048, out_features=8192, bias=True)
        (lin2): Linear(in_features=8192, out_features=2048, bias=True)
      )
      (3): TransformerFFN(
        (lin1): Linear(in_features=2048, out_features=8192, bias=True)
        (lin2): Linear(in_features=8192, out_features=2048, bias=True)
      )
      (4): TransformerFFN(
        (lin1): Linear(in_features=2048, out_features=8192, bias=True)
        (lin2): Linear(in_features=8192, out_features=2048, bias=True)
      )
      (5): TransformerFFN(
        (lin1): Linear(in_features=2048, out_features=8192, bias=True)
        (lin2): Linear(in_features=8192, out_features=2048, bias=True)
      )
      (6): TransformerFFN(
        (lin1): Linear(in_features=2048, out_features=8192, bias=True)
        (lin2): Linear(in_features=8192, out_features=2048, bias=True)
      )
      (7): TransformerFFN(
        (lin1): Linear(in_features=2048, out_features=8192, bias=True)
        (lin2): Linear(in_features=8192, out_features=2048, bias=True)
      )
      (8): TransformerFFN(
        (lin1): Linear(in_features=2048, out_features=8192, bias=True)
        (lin2): Linear(in_features=8192, out_features=2048, bias=True)
      )
      (9): TransformerFFN(
        (lin1): Linear(in_features=2048, out_features=8192, bias=True)
        (lin2): Linear(in_features=8192, out_features=2048, bias=True)
      )
      (10): TransformerFFN(
        (lin1): Linear(in_features=2048, out_features=8192, bias=True)
        (lin2): Linear(in_features=8192, out_features=2048, bias=True)
      )
      (11): TransformerFFN(
        (lin1): Linear(in_features=2048, out_features=8192, bias=True)
        (lin2): Linear(in_features=8192, out_features=2048, bias=True)
      )
    )
    (layer_norm2): ModuleList(
      (0): LayerNorm((2048,), eps=1e-12, elementwise_affine=True)
      (1): LayerNorm((2048,), eps=1e-12, elementwise_affine=True)
      (2): LayerNorm((2048,), eps=1e-12, elementwise_affine=True)
      (3): LayerNorm((2048,), eps=1e-12, elementwise_affine=True)
      (4): LayerNorm((2048,), eps=1e-12, elementwise_affine=True)
      (5): LayerNorm((2048,), eps=1e-12, elementwise_affine=True)
      (6): LayerNorm((2048,), eps=1e-12, elementwise_affine=True)
      (7): LayerNorm((2048,), eps=1e-12, elementwise_affine=True)
      (8): LayerNorm((2048,), eps=1e-12, elementwise_affine=True)
      (9): LayerNorm((2048,), eps=1e-12, elementwise_affine=True)
      (10): LayerNorm((2048,), eps=1e-12, elementwise_affine=True)
      (11): LayerNorm((2048,), eps=1e-12, elementwise_affine=True)
    )
  )
  (pred_layer): XLMPredLayer(
    (proj): Linear(in_features=2048, out_features=30145, bias=True)
  )
)

FlaubertWithLMHeadModel._actual_script_module
FlaubertWithLMHeadModel.forward
  graph(%self.1 : __torch__.transformers.modeling_flaubert.FlaubertWithLMHeadModel,
        %input_ids : Long(17:13, 13:1),
        %padding_mask : Long(17:13, 13:1)):
    %2852 : __torch__.transformers.modeling_xlm.XLMPredLayer = prim::GetAttr[name="pred_layer"](%self.1)
…
