AlbertForPreTraining(
  (albert): AlbertModel(
    (embeddings): AlbertEmbeddings(
      (word_embeddings): Embedding(30000, 128, padding_idx=0)
      (position_embeddings): Embedding(512, 128)
      (token_type_embeddings): Embedding(2, 128)
      (LayerNorm): LayerNorm((128,), eps=1e-12, elementwise_affine=True)
      (dropout): Dropout(p=0, inplace=False)
    )
    (encoder): AlbertTransformer(
      (embedding_hidden_mapping_in): Linear(in_features=128, out_features=4096, bias=True)
      (albert_layer_groups): ModuleList(
        (0): AlbertLayerGroup(
          (albert_layers): ModuleList(
            (0): AlbertLayer(
              (full_layer_layer_norm): LayerNorm((4096,), eps=1e-12, elementwise_affine=True)
              (attention): AlbertAttention(
                (query): Linear(in_features=4096, out_features=4096, bias=True)
                (key): Linear(in_features=4096, out_features=4096, bias=True)
                (value): Linear(in_features=4096, out_features=4096, bias=True)
                (attention_dropout): Dropout(p=0, inplace=False)
                (output_dropout): Dropout(p=0, inplace=False)
                (dense): Linear(in_features=4096, out_features=4096, bias=True)
                (LayerNorm): LayerNorm((4096,), eps=1e-12, elementwise_affine=True)
              )
              (ffn): Linear(in_features=4096, out_features=16384, bias=True)
              (ffn_output): Linear(in_features=16384, out_features=4096, bias=True)
              (dropout): Dropout(p=0, inplace=False)
            )
          )
        )
      )
    )
    (pooler): Linear(in_features=4096, out_features=4096, bias=True)
    (pooler_activation): Tanh()
  )
  (predictions): AlbertMLMHead(
    (LayerNorm): LayerNorm((128,), eps=1e-05, elementwise_affine=True)
    (dense): Linear(in_features=4096, out_features=128, bias=True)
    (decoder): Linear(in_features=128, out_features=30000, bias=True)
  )
  (sop_classifier): AlbertSOPHead(
    (dropout): Dropout(p=0.1, inplace=False)
    (classifier): Linear(in_features=4096, out_features=2, bias=True)
  )
)

AlbertForPreTraining._actual_script_module
AlbertForPreTraining.forward
  graph(%self.1 : __torch__.transformers.modeling_albert.AlbertForPreTraining,
        %input_ids : Long(17:13, 13:1),
        %attention_mask.1 : Long(17:13, 13:1)):
    %2931 : __torch__.transformers.modeling_albert.AlbertSOPHead = prim::GetAttr[name="sop_classifier"](%self.1)
…
