MNASNet(
  (layers): Sequential(
    (0): Conv2d(3, 40, kernel_size=(3, 3), stride=(2, 2), padding=(1, 1), bias=False)
    (1): BatchNorm2d(40, eps=1e-05, momentum=0.00029999999999996696, affine=True, track_running_stats=True)
    (2): ReLU(inplace=True)
    (3): Conv2d(40, 40, kernel_size=(3, 3), stride=(1, 1), padding=(1, 1), groups=40, bias=False)
    (4): BatchNorm2d(40, eps=1e-05, momentum=0.00029999999999996696, affine=True, track_running_stats=True)
    (5): ReLU(inplace=True)
    (6): Conv2d(40, 24, kernel_size=(1, 1), stride=(1, 1), bias=False)
    (7): BatchNorm2d(24, eps=1e-05, momentum=0.00029999999999996696, affine=True, track_running_stats=True)
    (8): Sequential(
      (0): _InvertedResidual(
        (layers): Sequential(
          (0): Conv2d(24, 72, kernel_size=(1, 1), stride=(1, 1), bias=False)
          (1): BatchNorm2d(72, eps=1e-05, momentum=0.00029999999999996696, affine=True, track_running_stats=True)
          (2): ReLU(inplace=True)
          (3): Conv2d(72, 72, kernel_size=(3, 3), stride=(2, 2), padding=(1, 1), groups=72, bias=False)
          (4): BatchNorm2d(72, eps=1e-05, momentum=0.00029999999999996696, affine=True, track_running_stats=True)
          (5): ReLU(inplace=True)
          (6): Conv2d(72, 32, kernel_size=(1, 1), stride=(1, 1), bias=False)
          (7): BatchNorm2d(32, eps=1e-05, momentum=0.00029999999999996696, affine=True, track_running_stats=True)
        )
      )
      (1): _InvertedResidual(
        (layers): Sequential(
          (0): Conv2d(32, 96, kernel_size=(1, 1), stride=(1, 1), bias=False)
          (1): BatchNorm2d(96, eps=1e-05, momentum=0.00029999999999996696, affine=True, track_running_stats=True)
          (2): ReLU(inplace=True)
          (3): Conv2d(96, 96, kernel_size=(3, 3), stride=(1, 1), padding=(1, 1), groups=96, bias=False)
          (4): BatchNorm2d(96, eps=1e-05, momentum=0.00029999999999996696, affine=True, track_running_stats=True)
          (5): ReLU(inplace=True)
          (6): Conv2d(96, 32, kernel_size=(1, 1), stride=(1, 1), bias=False)
          (7): BatchNorm2d(32, eps=1e-05, momentum=0.00029999999999996696, affine=True, track_running_stats=True)
        )
      )
      (2): _InvertedResidual(
        (layers): Sequential(
          (0): Conv2d(32, 96, kernel_size=(1, 1), stride=(1, 1), bias=False)
          (1): BatchNorm2d(96, eps=1e-05, momentum=0.00029999999999996696, affine=True, track_running_stats=True)
          (2): ReLU(inplace=True)
          (3): Conv2d(96, 96, kernel_size=(3, 3), stride=(1, 1), padding=(1, 1), groups=96, bias=False)
          (4): BatchNorm2d(96, eps=1e-05, momentum=0.00029999999999996696, affine=True, track_running_stats=True)
          (5): ReLU(inplace=True)
          (6): Conv2d(96, 32, kernel_size=(1, 1), stride=(1, 1), bias=False)
          (7): BatchNorm2d(32, eps=1e-05, momentum=0.00029999999999996696, affine=True, track_running_stats=True)
        )
      )
    )
    (9): Sequential(
      (0): _InvertedResidual(
        (layers): Sequential(
          (0): Conv2d(32, 96, kernel_size=(1, 1), stride=(1, 1), bias=False)
          (1): BatchNorm2d(96, eps=1e-05, momentum=0.00029999999999996696, affine=True, track_running_stats=True)
          (2): ReLU(inplace=True)
          (3): Conv2d(96, 96, kernel_size=(5, 5), stride=(2, 2), padding=(2, 2), groups=96, bias=False)
          (4): BatchNorm2d(96, eps=1e-05, momentum=0.00029999999999996696, affine=True, track_running_stats=True)
          (5): ReLU(inplace=True)
          (6): Conv2d(96, 56, kernel_size=(1, 1), stride=(1, 1), bias=False)
          (7): BatchNorm2d(56, eps=1e-05, momentum=0.00029999999999996696, affine=True, track_running_stats=True)
        )
      )
      (1): _InvertedResidual(
        (layers): Sequential(
          (0): Conv2d(56, 168, kernel_size=(1, 1), stride=(1, 1), bias=False)
          (1): BatchNorm2d(168, eps=1e-05, momentum=0.00029999999999996696, affine=True, track_running_stats=True)
          (2): ReLU(inplace=True)
          (3): Conv2d(168, 168, kernel_size=(5, 5), stride=(1, 1), padding=(2, 2), groups=168, bias=False)
          (4): BatchNorm2d(168, eps=1e-05, momentum=0.00029999999999996696, affine=True, track_running_stats=True)
          (5): ReLU(inplace=True)
          (6): Conv2d(168, 56, kernel_size=(1, 1), stride=(1, 1), bias=False)
          (7): BatchNorm2d(56, eps=1e-05, momentum=0.00029999999999996696, affine=True, track_running_stats=True)
        )
      )
      (2): _InvertedResidual(
        (layers): Sequential(
          (0): Conv2d(56, 168, kernel_size=(1, 1), stride=(1, 1), bias=False)
          (1): BatchNorm2d(168, eps=1e-05, momentum=0.00029999999999996696, affine=True, track_running_stats=True)
          (2): ReLU(inplace=True)
          (3): Conv2d(168, 168, kernel_size=(5, 5), stride=(1, 1), padding=(2, 2), groups=168, bias=False)
          (4): BatchNorm2d(168, eps=1e-05, momentum=0.00029999999999996696, affine=True, track_running_stats=True)
          (5): ReLU(inplace=True)
          (6): Conv2d(168, 56, kernel_size=(1, 1), stride=(1, 1), bias=False)
          (7): BatchNorm2d(56, eps=1e-05, momentum=0.00029999999999996696, affine=True, track_running_stats=True)
        )
      )
    )
    (10): Sequential(
      (0): _InvertedResidual(
        (layers): Sequential(
          (0): Conv2d(56, 336, kernel_size=(1, 1), stride=(1, 1), bias=False)
          (1): BatchNorm2d(336, eps=1e-05, momentum=0.00029999999999996696, affine=True, track_running_stats=True)
          (2): ReLU(inplace=True)
          (3): Conv2d(336, 336, kernel_size=(5, 5), stride=(2, 2), padding=(2, 2), groups=336, bias=False)
          (4): BatchNorm2d(336, eps=1e-05, momentum=0.00029999999999996696, affine=True, track_running_stats=True)
          (5): ReLU(inplace=True)
          (6): Conv2d(336, 104, kernel_size=(1, 1), stride=(1, 1), bias=False)
          (7): BatchNorm2d(104, eps=1e-05, momentum=0.00029999999999996696, affine=True, track_running_stats=True)
        )
      )
      (1): _InvertedResidual(
        (layers): Sequential(
          (0): Conv2d(104, 624, kernel_size=(1, 1), stride=(1, 1), bias=False)
          (1): BatchNorm2d(624, eps=1e-05, momentum=0.00029999999999996696, affine=True, track_running_stats=True)
          (2): ReLU(inplace=True)
          (3): Conv2d(624, 624, kernel_size=(5, 5), stride=(1, 1), padding=(2, 2), groups=624, bias=False)
          (4): BatchNorm2d(624, eps=1e-05, momentum=0.00029999999999996696, affine=True, track_running_stats=True)
          (5): ReLU(inplace=True)
          (6): Conv2d(624, 104, kernel_size=(1, 1), stride=(1, 1), bias=False)
          (7): BatchNorm2d(104, eps=1e-05, momentum=0.00029999999999996696, affine=True, track_running_stats=True)
        )
      )
      (2): _InvertedResidual(
        (layers): Sequential(
          (0): Conv2d(104, 624, kernel_size=(1, 1), stride=(1, 1), bias=False)
          (1): BatchNorm2d(624, eps=1e-05, momentum=0.00029999999999996696, affine=True, track_running_stats=True)
          (2): ReLU(inplace=True)
          (3): Conv2d(624, 624, kernel_size=(5, 5), stride=(1, 1), padding=(2, 2), groups=624, bias=False)
          (4): BatchNorm2d(624, eps=1e-05, momentum=0.00029999999999996696, affine=True, track_running_stats=True)
          (5): ReLU(inplace=True)
          (6): Conv2d(624, 104, kernel_size=(1, 1), stride=(1, 1), bias=False)
          (7): BatchNorm2d(104, eps=1e-05, momentum=0.00029999999999996696, affine=True, track_running_stats=True)
        )
      )
    )
    (11): Sequential(
      (0): _InvertedResidual(
        (layers): Sequential(
          (0): Conv2d(104, 624, kernel_size=(1, 1), stride=(1, 1), bias=False)
          (1): BatchNorm2d(624, eps=1e-05, momentum=0.00029999999999996696, affine=True, track_running_stats=True)
          (2): ReLU(inplace=True)
          (3): Conv2d(624, 624, kernel_size=(3, 3), stride=(1, 1), padding=(1, 1), groups=624, bias=False)
          (4): BatchNorm2d(624, eps=1e-05, momentum=0.00029999999999996696, affine=True, track_running_stats=True)
          (5): ReLU(inplace=True)
          (6): Conv2d(624, 128, kernel_size=(1, 1), stride=(1, 1), bias=False)
          (7): BatchNorm2d(128, eps=1e-05, momentum=0.00029999999999996696, affine=True, track_running_stats=True)
        )
      )
      (1): _InvertedResidual(
        (layers): Sequential(
          (0): Conv2d(128, 768, kernel_size=(1, 1), stride=(1, 1), bias=False)
          (1): BatchNorm2d(768, eps=1e-05, momentum=0.00029999999999996696, affine=True, track_running_stats=True)
          (2): ReLU(inplace=True)
          (3): Conv2d(768, 768, kernel_size=(3, 3), stride=(1, 1), padding=(1, 1), groups=768, bias=False)
          (4): BatchNorm2d(768, eps=1e-05, momentum=0.00029999999999996696, affine=True, track_running_stats=True)
          (5): ReLU(inplace=True)
          (6): Conv2d(768, 128, kernel_size=(1, 1), stride=(1, 1), bias=False)
          (7): BatchNorm2d(128, eps=1e-05, momentum=0.00029999999999996696, affine=True, track_running_stats=True)
        )
      )
    )
    (12): Sequential(
      (0): _InvertedResidual(
        (layers): Sequential(
          (0): Conv2d(128, 768, kernel_size=(1, 1), stride=(1, 1), bias=False)
          (1): BatchNorm2d(768, eps=1e-05, momentum=0.00029999999999996696, affine=True, track_running_stats=True)
          (2): ReLU(inplace=True)
          (3): Conv2d(768, 768, kernel_size=(5, 5), stride=(2, 2), padding=(2, 2), groups=768, bias=False)
          (4): BatchNorm2d(768, eps=1e-05, momentum=0.00029999999999996696, affine=True, track_running_stats=True)
          (5): ReLU(inplace=True)
          (6): Conv2d(768, 248, kernel_size=(1, 1), stride=(1, 1), bias=False)
          (7): BatchNorm2d(248, eps=1e-05, momentum=0.00029999999999996696, affine=True, track_running_stats=True)
        )
      )
      (1): _InvertedResidual(
        (layers): Sequential(
          (0): Conv2d(248, 1488, kernel_size=(1, 1), stride=(1, 1), bias=False)
          (1): BatchNorm2d(1488, eps=1e-05, momentum=0.00029999999999996696, affine=True, track_running_stats=True)
          (2): ReLU(inplace=True)
          (3): Conv2d(1488, 1488, kernel_size=(5, 5), stride=(1, 1), padding=(2, 2), groups=1488, bias=False)
          (4): BatchNorm2d(1488, eps=1e-05, momentum=0.00029999999999996696, affine=True, track_running_stats=True)
          (5): ReLU(inplace=True)
          (6): Conv2d(1488, 248, kernel_size=(1, 1), stride=(1, 1), bias=False)
          (7): BatchNorm2d(248, eps=1e-05, momentum=0.00029999999999996696, affine=True, track_running_stats=True)
        )
      )
      (2): _InvertedResidual(
        (layers): Sequential(
          (0): Conv2d(248, 1488, kernel_size=(1, 1), stride=(1, 1), bias=False)
          (1): BatchNorm2d(1488, eps=1e-05, momentum=0.00029999999999996696, affine=True, track_running_stats=True)
          (2): ReLU(inplace=True)
          (3): Conv2d(1488, 1488, kernel_size=(5, 5), stride=(1, 1), padding=(2, 2), groups=1488, bias=False)
          (4): BatchNorm2d(1488, eps=1e-05, momentum=0.00029999999999996696, affine=True, track_running_stats=True)
          (5): ReLU(inplace=True)
          (6): Conv2d(1488, 248, kernel_size=(1, 1), stride=(1, 1), bias=False)
          (7): BatchNorm2d(248, eps=1e-05, momentum=0.00029999999999996696, affine=True, track_running_stats=True)
        )
      )
      (3): _InvertedResidual(
        (layers): Sequential(
          (0): Conv2d(248, 1488, kernel_size=(1, 1), stride=(1, 1), bias=False)
          (1): BatchNorm2d(1488, eps=1e-05, momentum=0.00029999999999996696, affine=True, track_running_stats=True)
          (2): ReLU(inplace=True)
          (3): Conv2d(1488, 1488, kernel_size=(5, 5), stride=(1, 1), padding=(2, 2), groups=1488, bias=False)
          (4): BatchNorm2d(1488, eps=1e-05, momentum=0.00029999999999996696, affine=True, track_running_stats=True)
          (5): ReLU(inplace=True)
          (6): Conv2d(1488, 248, kernel_size=(1, 1), stride=(1, 1), bias=False)
          (7): BatchNorm2d(248, eps=1e-05, momentum=0.00029999999999996696, affine=True, track_running_stats=True)
        )
      )
    )
    (13): Sequential(
      (0): _InvertedResidual(
        (layers): Sequential(
          (0): Conv2d(248, 1488, kernel_size=(1, 1), stride=(1, 1), bias=False)
          (1): BatchNorm2d(1488, eps=1e-05, momentum=0.00029999999999996696, affine=True, track_running_stats=True)
          (2): ReLU(inplace=True)
          (3): Conv2d(1488, 1488, kernel_size=(3, 3), stride=(1, 1), padding=(1, 1), groups=1488, bias=False)
          (4): BatchNorm2d(1488, eps=1e-05, momentum=0.00029999999999996696, affine=True, track_running_stats=True)
          (5): ReLU(inplace=True)
          (6): Conv2d(1488, 416, kernel_size=(1, 1), stride=(1, 1), bias=False)
          (7): BatchNorm2d(416, eps=1e-05, momentum=0.00029999999999996696, affine=True, track_running_stats=True)
        )
      )
    )
    (14): Conv2d(416, 1280, kernel_size=(1, 1), stride=(1, 1), bias=False)
    (15): BatchNorm2d(1280, eps=1e-05, momentum=0.00029999999999996696, affine=True, track_running_stats=True)
    (16): ReLU(inplace=True)
  )
  (classifier): Sequential(
    (0): Dropout(p=0.2, inplace=True)
    (1): Linear(in_features=1280, out_features=1000, bias=True)
  )
)

MNASNet.classifier
Sequential.forward
  graph(%self : __torch__.torch.nn.modules.container.Sequential,
        %input.1 : Tensor):
    %3 : __torch__.torch.nn.modules.dropout.Dropout = prim::GetAttr[name="0"](%self)
    %5 : __torch__.torch.nn.modules.linear.Linear = prim::GetAttr[name="1"](%self)
    %input.3 : Tensor = prim::CallMethod[name="forward"](%3, %input.1) # torch/nn/modules/container.py:117:20
…
