…
  %hidden_states.1 : Float(17:3328, 13:256, 256:1) = aten::add(%inputs_embeds, %position_embeddings, %32), scope: __module.reformer/__module.reformer.embeddings # transformers/modeling_reformer.py:265:0
  %133 : __torch__.torch.nn.modules.normalization.___torch_mangle_30214.LayerNorm = prim::GetAttr[name="layer_norm"](%33)
  %134 : Tensor[] = prim::ListConstruct(%hidden_states.1, %hidden_states.1), scope: __module.reformer/__module.reformer.encoder
  %hidden_states.2 : Float(17:6656, 13:512, 512:1) = aten::cat(%134, %12), scope: __module.reformer/__module.reformer.encoder # transformers/modeling_reformer.py:1726:0
  %input.56 : Float(17:6656, 13:512, 512:1) = ^_ReversibleFunction(ModuleList(
  (0): ReformerLayer(
    (attention): ReformerAttention(
      (layer_norm): LayerNorm((256,), eps=1e-12, elementwise_affine=True)
      (self_attention): LocalSelfAttention(
        (query): Linear(in_features=256, out_features=768, bias=False)
        (key): Linear(in_features=256, out_features=768, bias=False)
        (value): Linear(in_features=256, out_features=768, bias=False)
      )
      (output): ReformerSelfOutput(
        (dense): Linear(in_features=768, out_features=256, bias=False)
      )
    )
    (feed_forward): ChunkReformerFeedForward(
      (layer_norm): LayerNorm((256,), eps=1e-12, elementwise_affine=True)
      (dense): ReformerFeedForwardDense(
        (dense): Linear(in_features=256, out_features=512, bias=True)
      )
      (output): ReformerFeedForwardOutput(
        (dense): Linear(in_features=512, out_features=256, bias=True)
      )
    )
  )
  (1): ReformerLayer(
    (attention): ReformerAttention(
      (layer_norm): LayerNorm((256,), eps=1e-12, elementwise_affine=True)
      (self_attention): LSHSelfAttention(
        (query_key): Linear(in_features=256, out_features=768, bias=False)
        (value): Linear(in_features=256, out_features=768, bias=False)
      )
      (output): ReformerSelfOutput(
        (dense): Linear(in_features=768, out_features=256, bias=False)
      )
    )
    (feed_forward): ChunkReformerFeedForward(
      (layer_norm): LayerNorm((256,), eps=1e-12, elementwise_affine=True)
      (dense): ReformerFeedForwardDense(
        (dense): Linear(in_features=256, out_features=512, bias=True)
      )
      (output): ReformerFeedForwardOutput(
        (dense): Linear(in_features=512, out_features=256, bias=True)
      )
    )
  )
  (2): ReformerLayer(
    (attention): ReformerAttention(
      (layer_norm): LayerNorm((256,), eps=1e-12, elementwise_affine=True)
      (self_attention): LocalSelfAttention(
        (query): Linear(in_features=256, out_features=768, bias=False)
        (key): Linear(in_features=256, out_features=768, bias=False)
        (value): Linear(in_features=256, out_features=768, bias=False)
      )
      (output): ReformerSelfOutput(
        (dense): Linear(in_features=768, out_features=256, bias=False)
      )
    )
    (feed_forward): ChunkReformerFeedForward(
      (layer_norm): LayerNorm((256,), eps=1e-12, elementwise_affine=True)
      (dense): ReformerFeedForwardDense(
        (dense): Linear(in_features=256, out_features=512, bias=True)
      )
      (output): ReformerFeedForwardOutput(
        (dense): Linear(in_features=512, out_features=256, bias=True)
      )
    )
  )
  (3): ReformerLayer(
    (attention): ReformerAttention(
      (layer_norm): LayerNorm((256,), eps=1e-12, elementwise_affine=True)
      (self_attention): LSHSelfAttention(
        (query_key): Linear(in_features=256, out_features=768, bias=False)
        (value): Linear(in_features=256, out_features=768, bias=False)
      )
      (output): ReformerSelfOutput(
        (dense): Linear(in_features=768, out_features=256, bias=False)
      )
    )
    (feed_forward): ChunkReformerFeedForward(
      (layer_norm): LayerNorm((256,), eps=1e-12, elementwise_affine=True)
      (dense): ReformerFeedForwardDense(
        (dense): Linear(in_features=256, out_features=512, bias=True)
      )
      (output): ReformerFeedForwardOutput(
        (dense): Linear(in_features=512, out_features=256, bias=True)
      )
    )
  )
  (4): ReformerLayer(
    (attention): ReformerAttention(
      (layer_norm): LayerNorm((256,), eps=1e-12, elementwise_affine=True)
      (self_attention): LocalSelfAttention(
        (query): Linear(in_features=256, out_features=768, bias=False)
        (key): Linear(in_features=256, out_features=768, bias=False)
        (value): Linear(in_features=256, out_features=768, bias=False)
      )
      (output): ReformerSelfOutput(
        (dense): Linear(in_features=768, out_features=256, bias=False)
      )
    )
    (feed_forward): ChunkReformerFeedForward(
      (layer_norm): LayerNorm((256,), eps=1e-12, elementwise_affine=True)
      (dense): ReformerFeedForwardDense(
        (dense): Linear(in_features=256, out_features=512, bias=True)
      )
      (output): ReformerFeedForwardOutput(
        (dense): Linear(in_features=512, out_features=256, bias=True)
      )
    )
  )
  (5): ReformerLayer(
    (attention): ReformerAttention(
      (layer_norm): LayerNorm((256,), eps=1e-12, elementwise_affine=True)
      (self_attention): LSHSelfAttention(
        (query_key): Linear(in_features=256, out_features=768, bias=False)
        (value): Linear(in_features=256, out_features=768, bias=False)
      )
      (output): ReformerSelfOutput(
        (dense): Linear(in_features=768, out_features=256, bias=False)
      )
    )
    (feed_forward): ChunkReformerFeedForward(
      (layer_norm): LayerNorm((256,), eps=1e-12, elementwise_affine=True)
      (dense): ReformerFeedForwardDense(
        (dense): Linear(in_features=256, out_features=512, bias=True)
      )
      (output): ReformerFeedForwardOutput(
        (dense): Linear(in_features=512, out_features=256, bias=True)
      )
    )
  )
), None, [None, None, None, None, None, None], None, [], [], [(None, None), (None, None), (None, None), (None, None), (None, None), (None, None)], False, False, False)(%hidden_states.2, %orig_sequence_length), scope: __module.reformer/__module.reformer.encoder # transformers/modeling_reformer.py:1727:0
  %137 : Tensor = prim::GetAttr[name="bias"](%133)
…
