ReformerForMaskedLM(
  (reformer): ReformerModel(
    (embeddings): ReformerEmbeddings(
      (word_embeddings): Embedding(320, 256)
      (position_embeddings): AxialPositionEmbeddings(
        (weights): ParameterList(
            (0): Parameter containing: [torch.FloatTensor of size 64x1x64]
            (1): Parameter containing: [torch.FloatTensor of size 1x64x192]
        )
      )
    )
    (encoder): ReformerEncoder(
      (layers): ModuleList(
        (0): ReformerLayer(
          (attention): ReformerAttention(
            (layer_norm): LayerNorm((256,), eps=1e-12, elementwise_affine=True)
            (self_attention): LocalSelfAttention(
              (query): Linear(in_features=256, out_features=768, bias=False)
              (key): Linear(in_features=256, out_features=768, bias=False)
              (value): Linear(in_features=256, out_features=768, bias=False)
            )
            (output): ReformerSelfOutput(
              (dense): Linear(in_features=768, out_features=256, bias=False)
            )
          )
          (feed_forward): ChunkReformerFeedForward(
            (layer_norm): LayerNorm((256,), eps=1e-12, elementwise_affine=True)
            (dense): ReformerFeedForwardDense(
              (dense): Linear(in_features=256, out_features=512, bias=True)
            )
            (output): ReformerFeedForwardOutput(
              (dense): Linear(in_features=512, out_features=256, bias=True)
            )
          )
        )
        (1): ReformerLayer(
          (attention): ReformerAttention(
            (layer_norm): LayerNorm((256,), eps=1e-12, elementwise_affine=True)
            (self_attention): LSHSelfAttention(
              (query_key): Linear(in_features=256, out_features=768, bias=False)
              (value): Linear(in_features=256, out_features=768, bias=False)
            )
            (output): ReformerSelfOutput(
              (dense): Linear(in_features=768, out_features=256, bias=False)
            )
          )
          (feed_forward): ChunkReformerFeedForward(
            (layer_norm): LayerNorm((256,), eps=1e-12, elementwise_affine=True)
            (dense): ReformerFeedForwardDense(
              (dense): Linear(in_features=256, out_features=512, bias=True)
            )
            (output): ReformerFeedForwardOutput(
              (dense): Linear(in_features=512, out_features=256, bias=True)
            )
          )
        )
        (2): ReformerLayer(
          (attention): ReformerAttention(
            (layer_norm): LayerNorm((256,), eps=1e-12, elementwise_affine=True)
            (self_attention): LocalSelfAttention(
              (query): Linear(in_features=256, out_features=768, bias=False)
              (key): Linear(in_features=256, out_features=768, bias=False)
              (value): Linear(in_features=256, out_features=768, bias=False)
            )
            (output): ReformerSelfOutput(
              (dense): Linear(in_features=768, out_features=256, bias=False)
            )
          )
          (feed_forward): ChunkReformerFeedForward(
            (layer_norm): LayerNorm((256,), eps=1e-12, elementwise_affine=True)
            (dense): ReformerFeedForwardDense(
              (dense): Linear(in_features=256, out_features=512, bias=True)
            )
            (output): ReformerFeedForwardOutput(
              (dense): Linear(in_features=512, out_features=256, bias=True)
            )
          )
        )
        (3): ReformerLayer(
          (attention): ReformerAttention(
            (layer_norm): LayerNorm((256,), eps=1e-12, elementwise_affine=True)
            (self_attention): LSHSelfAttention(
              (query_key): Linear(in_features=256, out_features=768, bias=False)
              (value): Linear(in_features=256, out_features=768, bias=False)
            )
            (output): ReformerSelfOutput(
              (dense): Linear(in_features=768, out_features=256, bias=False)
            )
          )
          (feed_forward): ChunkReformerFeedForward(
            (layer_norm): LayerNorm((256,), eps=1e-12, elementwise_affine=True)
            (dense): ReformerFeedForwardDense(
              (dense): Linear(in_features=256, out_features=512, bias=True)
            )
            (output): ReformerFeedForwardOutput(
              (dense): Linear(in_features=512, out_features=256, bias=True)
            )
          )
        )
        (4): ReformerLayer(
          (attention): ReformerAttention(
            (layer_norm): LayerNorm((256,), eps=1e-12, elementwise_affine=True)
            (self_attention): LocalSelfAttention(
              (query): Linear(in_features=256, out_features=768, bias=False)
              (key): Linear(in_features=256, out_features=768, bias=False)
              (value): Linear(in_features=256, out_features=768, bias=False)
            )
            (output): ReformerSelfOutput(
              (dense): Linear(in_features=768, out_features=256, bias=False)
            )
          )
          (feed_forward): ChunkReformerFeedForward(
            (layer_norm): LayerNorm((256,), eps=1e-12, elementwise_affine=True)
            (dense): ReformerFeedForwardDense(
              (dense): Linear(in_features=256, out_features=512, bias=True)
            )
            (output): ReformerFeedForwardOutput(
              (dense): Linear(in_features=512, out_features=256, bias=True)
            )
          )
        )
        (5): ReformerLayer(
          (attention): ReformerAttention(
            (layer_norm): LayerNorm((256,), eps=1e-12, elementwise_affine=True)
            (self_attention): LSHSelfAttention(
              (query_key): Linear(in_features=256, out_features=768, bias=False)
              (value): Linear(in_features=256, out_features=768, bias=False)
            )
            (output): ReformerSelfOutput(
              (dense): Linear(in_features=768, out_features=256, bias=False)
            )
          )
          (feed_forward): ChunkReformerFeedForward(
            (layer_norm): LayerNorm((256,), eps=1e-12, elementwise_affine=True)
            (dense): ReformerFeedForwardDense(
              (dense): Linear(in_features=256, out_features=512, bias=True)
            )
            (output): ReformerFeedForwardOutput(
              (dense): Linear(in_features=512, out_features=256, bias=True)
            )
          )
        )
      )
      (layer_norm): LayerNorm((512,), eps=1e-12, elementwise_affine=True)
    )
  )
  (lm_head): ReformerOnlyLMHead(
    (decoder): Linear(in_features=512, out_features=320, bias=True)
  )
)

ReformerForMaskedLM._actual_script_module
ReformerForMaskedLM.forward
  graph(%self.1 : __torch__.transformers.modeling_reformer.ReformerForMaskedLM,
        %input_ids : Long(17:13, 13:1),
        %position_ids : Long(17:13, 13:1)):
    %2490 : __torch__.transformers.modeling_reformer.ReformerOnlyLMHead = prim::GetAttr[name="lm_head"](%self.1)
    %2485 : __torch__.transformers.modeling_reformer.ReformerModel = prim::GetAttr[name="reformer"](%self.1)
…
    %15 : __torch__.transformers.modeling_reformer.ReformerLayer = prim::GetAttr[name="0"](%14)
    %16 : Tensor[] = prim::ListConstruct(%1, %1), scope: __module.reformer/__module.reformer.encoder
    %17 : int = prim::Constant[value=-1](), scope: __module.reformer/__module.reformer.encoder # transformers/modeling_reformer.py:1726:0
    %hidden_states.2 : Float(17:6656, 13:512, 512:1) = aten::cat(%16, %17), scope: __module.reformer/__module.reformer.encoder # transformers/modeling_reformer.py:1726:0
    %input.56 : Float(17:6656, 13:512, 512:1) = ^_ReversibleFunction(ModuleList(
    (0): ReformerLayer(
      (attention): ReformerAttention(
        (layer_norm): LayerNorm((256,), eps=1e-12, elementwise_affine=True)
        (self_attention): LocalSelfAttention(
          (query): Linear(in_features=256, out_features=768, bias=False)
          (key): Linear(in_features=256, out_features=768, bias=False)
          (value): Linear(in_features=256, out_features=768, bias=False)
        )
        (output): ReformerSelfOutput(
          (dense): Linear(in_features=768, out_features=256, bias=False)
        )
      )
      (feed_forward): ChunkReformerFeedForward(
        (layer_norm): LayerNorm((256,), eps=1e-12, elementwise_affine=True)
        (dense): ReformerFeedForwardDense(
          (dense): Linear(in_features=256, out_features=512, bias=True)
        )
        (output): ReformerFeedForwardOutput(
          (dense): Linear(in_features=512, out_features=256, bias=True)
        )
      )
    )
    (1): ReformerLayer(
      (attention): ReformerAttention(
        (layer_norm): LayerNorm((256,), eps=1e-12, elementwise_affine=True)
        (self_attention): LSHSelfAttention(
          (query_key): Linear(in_features=256, out_features=768, bias=False)
          (value): Linear(in_features=256, out_features=768, bias=False)
        )
        (output): ReformerSelfOutput(
          (dense): Linear(in_features=768, out_features=256, bias=False)
        )
      )
      (feed_forward): ChunkReformerFeedForward(
        (layer_norm): LayerNorm((256,), eps=1e-12, elementwise_affine=True)
        (dense): ReformerFeedForwardDense(
          (dense): Linear(in_features=256, out_features=512, bias=True)
        )
        (output): ReformerFeedForwardOutput(
          (dense): Linear(in_features=512, out_features=256, bias=True)
        )
      )
    )
    (2): ReformerLayer(
      (attention): ReformerAttention(
        (layer_norm): LayerNorm((256,), eps=1e-12, elementwise_affine=True)
        (self_attention): LocalSelfAttention(
          (query): Linear(in_features=256, out_features=768, bias=False)
          (key): Linear(in_features=256, out_features=768, bias=False)
          (value): Linear(in_features=256, out_features=768, bias=False)
        )
        (output): ReformerSelfOutput(
          (dense): Linear(in_features=768, out_features=256, bias=False)
        )
      )
      (feed_forward): ChunkReformerFeedForward(
        (layer_norm): LayerNorm((256,), eps=1e-12, elementwise_affine=True)
        (dense): ReformerFeedForwardDense(
          (dense): Linear(in_features=256, out_features=512, bias=True)
        )
        (output): ReformerFeedForwardOutput(
          (dense): Linear(in_features=512, out_features=256, bias=True)
        )
      )
    )
    (3): ReformerLayer(
      (attention): ReformerAttention(
        (layer_norm): LayerNorm((256,), eps=1e-12, elementwise_affine=True)
        (self_attention): LSHSelfAttention(
          (query_key): Linear(in_features=256, out_features=768, bias=False)
          (value): Linear(in_features=256, out_features=768, bias=False)
        )
        (output): ReformerSelfOutput(
          (dense): Linear(in_features=768, out_features=256, bias=False)
        )
      )
      (feed_forward): ChunkReformerFeedForward(
        (layer_norm): LayerNorm((256,), eps=1e-12, elementwise_affine=True)
        (dense): ReformerFeedForwardDense(
          (dense): Linear(in_features=256, out_features=512, bias=True)
        )
        (output): ReformerFeedForwardOutput(
          (dense): Linear(in_features=512, out_features=256, bias=True)
        )
      )
    )
    (4): ReformerLayer(
      (attention): ReformerAttention(
        (layer_norm): LayerNorm((256,), eps=1e-12, elementwise_affine=True)
        (self_attention): LocalSelfAttention(
          (query): Linear(in_features=256, out_features=768, bias=False)
          (key): Linear(in_features=256, out_features=768, bias=False)
          (value): Linear(in_features=256, out_features=768, bias=False)
        )
        (output): ReformerSelfOutput(
          (dense): Linear(in_features=768, out_features=256, bias=False)
        )
      )
      (feed_forward): ChunkReformerFeedForward(
        (layer_norm): LayerNorm((256,), eps=1e-12, elementwise_affine=True)
        (dense): ReformerFeedForwardDense(
          (dense): Linear(in_features=256, out_features=512, bias=True)
        )
        (output): ReformerFeedForwardOutput(
          (dense): Linear(in_features=512, out_features=256, bias=True)
        )
      )
    )
    (5): ReformerLayer(
      (attention): ReformerAttention(
        (layer_norm): LayerNorm((256,), eps=1e-12, elementwise_affine=True)
        (self_attention): LSHSelfAttention(
          (query_key): Linear(in_features=256, out_features=768, bias=False)
          (value): Linear(in_features=256, out_features=768, bias=False)
        )
        (output): ReformerSelfOutput(
          (dense): Linear(in_features=768, out_features=256, bias=False)
        )
      )
      (feed_forward): ChunkReformerFeedForward(
        (layer_norm): LayerNorm((256,), eps=1e-12, elementwise_affine=True)
        (dense): ReformerFeedForwardDense(
          (dense): Linear(in_features=256, out_features=512, bias=True)
        )
        (output): ReformerFeedForwardOutput(
          (dense): Linear(in_features=512, out_features=256, bias=True)
        )
      )
    )
  ), None, [None, None, None, None, None, None], None, [], [], [(None, None), (None, None), (None, None), (None, None), (None, None), (None, None)], False, False, False)(%hidden_states.2, %orig_sequence_length), scope: __module.reformer/__module.reformer.encoder # transformers/modeling_reformer.py:1727:0
    %20 : int = prim::Constant[value=2](), scope: __module.reformer/__module.reformer.encoder # transformers/modeling_reformer.py:1609:0
…
