XLNetForMultipleChoice(
  (transformer): XLNetModel(
    (word_embedding): Embedding(32000, 1024)
    (layer): ModuleList(
      (0): XLNetLayer(
        (rel_attn): XLNetRelativeAttention(
          (layer_norm): LayerNorm((1024,), eps=1e-12, elementwise_affine=True)
          (dropout): Dropout(p=0.1, inplace=False)
        )
        (ff): XLNetFeedForward(
          (layer_norm): LayerNorm((1024,), eps=1e-12, elementwise_affine=True)
          (layer_1): Linear(in_features=1024, out_features=4096, bias=True)
          (layer_2): Linear(in_features=4096, out_features=1024, bias=True)
          (dropout): Dropout(p=0.1, inplace=False)
        )
        (dropout): Dropout(p=0.1, inplace=False)
      )
      (1): XLNetLayer(
        (rel_attn): XLNetRelativeAttention(
          (layer_norm): LayerNorm((1024,), eps=1e-12, elementwise_affine=True)
          (dropout): Dropout(p=0.1, inplace=False)
        )
        (ff): XLNetFeedForward(
          (layer_norm): LayerNorm((1024,), eps=1e-12, elementwise_affine=True)
          (layer_1): Linear(in_features=1024, out_features=4096, bias=True)
          (layer_2): Linear(in_features=4096, out_features=1024, bias=True)
          (dropout): Dropout(p=0.1, inplace=False)
        )
        (dropout): Dropout(p=0.1, inplace=False)
      )
      (2): XLNetLayer(
        (rel_attn): XLNetRelativeAttention(
          (layer_norm): LayerNorm((1024,), eps=1e-12, elementwise_affine=True)
          (dropout): Dropout(p=0.1, inplace=False)
        )
        (ff): XLNetFeedForward(
          (layer_norm): LayerNorm((1024,), eps=1e-12, elementwise_affine=True)
          (layer_1): Linear(in_features=1024, out_features=4096, bias=True)
          (layer_2): Linear(in_features=4096, out_features=1024, bias=True)
          (dropout): Dropout(p=0.1, inplace=False)
        )
        (dropout): Dropout(p=0.1, inplace=False)
      )
      (3): XLNetLayer(
        (rel_attn): XLNetRelativeAttention(
          (layer_norm): LayerNorm((1024,), eps=1e-12, elementwise_affine=True)
          (dropout): Dropout(p=0.1, inplace=False)
        )
        (ff): XLNetFeedForward(
          (layer_norm): LayerNorm((1024,), eps=1e-12, elementwise_affine=True)
          (layer_1): Linear(in_features=1024, out_features=4096, bias=True)
          (layer_2): Linear(in_features=4096, out_features=1024, bias=True)
          (dropout): Dropout(p=0.1, inplace=False)
        )
        (dropout): Dropout(p=0.1, inplace=False)
      )
      (4): XLNetLayer(
        (rel_attn): XLNetRelativeAttention(
          (layer_norm): LayerNorm((1024,), eps=1e-12, elementwise_affine=True)
          (dropout): Dropout(p=0.1, inplace=False)
        )
        (ff): XLNetFeedForward(
          (layer_norm): LayerNorm((1024,), eps=1e-12, elementwise_affine=True)
          (layer_1): Linear(in_features=1024, out_features=4096, bias=True)
          (layer_2): Linear(in_features=4096, out_features=1024, bias=True)
          (dropout): Dropout(p=0.1, inplace=False)
        )
        (dropout): Dropout(p=0.1, inplace=False)
      )
      (5): XLNetLayer(
        (rel_attn): XLNetRelativeAttention(
          (layer_norm): LayerNorm((1024,), eps=1e-12, elementwise_affine=True)
          (dropout): Dropout(p=0.1, inplace=False)
        )
        (ff): XLNetFeedForward(
          (layer_norm): LayerNorm((1024,), eps=1e-12, elementwise_affine=True)
          (layer_1): Linear(in_features=1024, out_features=4096, bias=True)
          (layer_2): Linear(in_features=4096, out_features=1024, bias=True)
          (dropout): Dropout(p=0.1, inplace=False)
        )
        (dropout): Dropout(p=0.1, inplace=False)
      )
      (6): XLNetLayer(
        (rel_attn): XLNetRelativeAttention(
          (layer_norm): LayerNorm((1024,), eps=1e-12, elementwise_affine=True)
          (dropout): Dropout(p=0.1, inplace=False)
        )
        (ff): XLNetFeedForward(
          (layer_norm): LayerNorm((1024,), eps=1e-12, elementwise_affine=True)
          (layer_1): Linear(in_features=1024, out_features=4096, bias=True)
          (layer_2): Linear(in_features=4096, out_features=1024, bias=True)
          (dropout): Dropout(p=0.1, inplace=False)
        )
        (dropout): Dropout(p=0.1, inplace=False)
      )
      (7): XLNetLayer(
        (rel_attn): XLNetRelativeAttention(
          (layer_norm): LayerNorm((1024,), eps=1e-12, elementwise_affine=True)
          (dropout): Dropout(p=0.1, inplace=False)
        )
        (ff): XLNetFeedForward(
          (layer_norm): LayerNorm((1024,), eps=1e-12, elementwise_affine=True)
          (layer_1): Linear(in_features=1024, out_features=4096, bias=True)
          (layer_2): Linear(in_features=4096, out_features=1024, bias=True)
          (dropout): Dropout(p=0.1, inplace=False)
        )
        (dropout): Dropout(p=0.1, inplace=False)
      )
      (8): XLNetLayer(
        (rel_attn): XLNetRelativeAttention(
          (layer_norm): LayerNorm((1024,), eps=1e-12, elementwise_affine=True)
          (dropout): Dropout(p=0.1, inplace=False)
        )
        (ff): XLNetFeedForward(
          (layer_norm): LayerNorm((1024,), eps=1e-12, elementwise_affine=True)
          (layer_1): Linear(in_features=1024, out_features=4096, bias=True)
          (layer_2): Linear(in_features=4096, out_features=1024, bias=True)
          (dropout): Dropout(p=0.1, inplace=False)
        )
        (dropout): Dropout(p=0.1, inplace=False)
      )
      (9): XLNetLayer(
        (rel_attn): XLNetRelativeAttention(
          (layer_norm): LayerNorm((1024,), eps=1e-12, elementwise_affine=True)
          (dropout): Dropout(p=0.1, inplace=False)
        )
        (ff): XLNetFeedForward(
          (layer_norm): LayerNorm((1024,), eps=1e-12, elementwise_affine=True)
          (layer_1): Linear(in_features=1024, out_features=4096, bias=True)
          (layer_2): Linear(in_features=4096, out_features=1024, bias=True)
          (dropout): Dropout(p=0.1, inplace=False)
        )
        (dropout): Dropout(p=0.1, inplace=False)
      )
      (10): XLNetLayer(
        (rel_attn): XLNetRelativeAttention(
          (layer_norm): LayerNorm((1024,), eps=1e-12, elementwise_affine=True)
          (dropout): Dropout(p=0.1, inplace=False)
        )
        (ff): XLNetFeedForward(
          (layer_norm): LayerNorm((1024,), eps=1e-12, elementwise_affine=True)
          (layer_1): Linear(in_features=1024, out_features=4096, bias=True)
          (layer_2): Linear(in_features=4096, out_features=1024, bias=True)
          (dropout): Dropout(p=0.1, inplace=False)
        )
        (dropout): Dropout(p=0.1, inplace=False)
      )
      (11): XLNetLayer(
        (rel_attn): XLNetRelativeAttention(
          (layer_norm): LayerNorm((1024,), eps=1e-12, elementwise_affine=True)
          (dropout): Dropout(p=0.1, inplace=False)
        )
        (ff): XLNetFeedForward(
          (layer_norm): LayerNorm((1024,), eps=1e-12, elementwise_affine=True)
          (layer_1): Linear(in_features=1024, out_features=4096, bias=True)
          (layer_2): Linear(in_features=4096, out_features=1024, bias=True)
          (dropout): Dropout(p=0.1, inplace=False)
        )
        (dropout): Dropout(p=0.1, inplace=False)
      )
      (12): XLNetLayer(
        (rel_attn): XLNetRelativeAttention(
          (layer_norm): LayerNorm((1024,), eps=1e-12, elementwise_affine=True)
          (dropout): Dropout(p=0.1, inplace=False)
        )
        (ff): XLNetFeedForward(
          (layer_norm): LayerNorm((1024,), eps=1e-12, elementwise_affine=True)
          (layer_1): Linear(in_features=1024, out_features=4096, bias=True)
          (layer_2): Linear(in_features=4096, out_features=1024, bias=True)
          (dropout): Dropout(p=0.1, inplace=False)
        )
        (dropout): Dropout(p=0.1, inplace=False)
      )
      (13): XLNetLayer(
        (rel_attn): XLNetRelativeAttention(
          (layer_norm): LayerNorm((1024,), eps=1e-12, elementwise_affine=True)
          (dropout): Dropout(p=0.1, inplace=False)
        )
        (ff): XLNetFeedForward(
          (layer_norm): LayerNorm((1024,), eps=1e-12, elementwise_affine=True)
          (layer_1): Linear(in_features=1024, out_features=4096, bias=True)
          (layer_2): Linear(in_features=4096, out_features=1024, bias=True)
          (dropout): Dropout(p=0.1, inplace=False)
        )
        (dropout): Dropout(p=0.1, inplace=False)
      )
      (14): XLNetLayer(
        (rel_attn): XLNetRelativeAttention(
          (layer_norm): LayerNorm((1024,), eps=1e-12, elementwise_affine=True)
          (dropout): Dropout(p=0.1, inplace=False)
        )
        (ff): XLNetFeedForward(
          (layer_norm): LayerNorm((1024,), eps=1e-12, elementwise_affine=True)
          (layer_1): Linear(in_features=1024, out_features=4096, bias=True)
          (layer_2): Linear(in_features=4096, out_features=1024, bias=True)
          (dropout): Dropout(p=0.1, inplace=False)
        )
        (dropout): Dropout(p=0.1, inplace=False)
      )
      (15): XLNetLayer(
        (rel_attn): XLNetRelativeAttention(
          (layer_norm): LayerNorm((1024,), eps=1e-12, elementwise_affine=True)
          (dropout): Dropout(p=0.1, inplace=False)
        )
        (ff): XLNetFeedForward(
          (layer_norm): LayerNorm((1024,), eps=1e-12, elementwise_affine=True)
          (layer_1): Linear(in_features=1024, out_features=4096, bias=True)
          (layer_2): Linear(in_features=4096, out_features=1024, bias=True)
          (dropout): Dropout(p=0.1, inplace=False)
        )
        (dropout): Dropout(p=0.1, inplace=False)
      )
      (16): XLNetLayer(
        (rel_attn): XLNetRelativeAttention(
          (layer_norm): LayerNorm((1024,), eps=1e-12, elementwise_affine=True)
          (dropout): Dropout(p=0.1, inplace=False)
        )
        (ff): XLNetFeedForward(
          (layer_norm): LayerNorm((1024,), eps=1e-12, elementwise_affine=True)
          (layer_1): Linear(in_features=1024, out_features=4096, bias=True)
          (layer_2): Linear(in_features=4096, out_features=1024, bias=True)
          (dropout): Dropout(p=0.1, inplace=False)
        )
        (dropout): Dropout(p=0.1, inplace=False)
      )
      (17): XLNetLayer(
        (rel_attn): XLNetRelativeAttention(
          (layer_norm): LayerNorm((1024,), eps=1e-12, elementwise_affine=True)
          (dropout): Dropout(p=0.1, inplace=False)
        )
        (ff): XLNetFeedForward(
          (layer_norm): LayerNorm((1024,), eps=1e-12, elementwise_affine=True)
          (layer_1): Linear(in_features=1024, out_features=4096, bias=True)
          (layer_2): Linear(in_features=4096, out_features=1024, bias=True)
          (dropout): Dropout(p=0.1, inplace=False)
        )
        (dropout): Dropout(p=0.1, inplace=False)
      )
      (18): XLNetLayer(
        (rel_attn): XLNetRelativeAttention(
          (layer_norm): LayerNorm((1024,), eps=1e-12, elementwise_affine=True)
          (dropout): Dropout(p=0.1, inplace=False)
        )
        (ff): XLNetFeedForward(
          (layer_norm): LayerNorm((1024,), eps=1e-12, elementwise_affine=True)
          (layer_1): Linear(in_features=1024, out_features=4096, bias=True)
          (layer_2): Linear(in_features=4096, out_features=1024, bias=True)
          (dropout): Dropout(p=0.1, inplace=False)
        )
        (dropout): Dropout(p=0.1, inplace=False)
      )
      (19): XLNetLayer(
        (rel_attn): XLNetRelativeAttention(
          (layer_norm): LayerNorm((1024,), eps=1e-12, elementwise_affine=True)
          (dropout): Dropout(p=0.1, inplace=False)
        )
        (ff): XLNetFeedForward(
          (layer_norm): LayerNorm((1024,), eps=1e-12, elementwise_affine=True)
          (layer_1): Linear(in_features=1024, out_features=4096, bias=True)
          (layer_2): Linear(in_features=4096, out_features=1024, bias=True)
          (dropout): Dropout(p=0.1, inplace=False)
        )
        (dropout): Dropout(p=0.1, inplace=False)
      )
      (20): XLNetLayer(
        (rel_attn): XLNetRelativeAttention(
          (layer_norm): LayerNorm((1024,), eps=1e-12, elementwise_affine=True)
          (dropout): Dropout(p=0.1, inplace=False)
        )
        (ff): XLNetFeedForward(
          (layer_norm): LayerNorm((1024,), eps=1e-12, elementwise_affine=True)
          (layer_1): Linear(in_features=1024, out_features=4096, bias=True)
          (layer_2): Linear(in_features=4096, out_features=1024, bias=True)
          (dropout): Dropout(p=0.1, inplace=False)
        )
        (dropout): Dropout(p=0.1, inplace=False)
      )
      (21): XLNetLayer(
        (rel_attn): XLNetRelativeAttention(
          (layer_norm): LayerNorm((1024,), eps=1e-12, elementwise_affine=True)
          (dropout): Dropout(p=0.1, inplace=False)
        )
        (ff): XLNetFeedForward(
          (layer_norm): LayerNorm((1024,), eps=1e-12, elementwise_affine=True)
          (layer_1): Linear(in_features=1024, out_features=4096, bias=True)
          (layer_2): Linear(in_features=4096, out_features=1024, bias=True)
          (dropout): Dropout(p=0.1, inplace=False)
        )
        (dropout): Dropout(p=0.1, inplace=False)
      )
      (22): XLNetLayer(
        (rel_attn): XLNetRelativeAttention(
          (layer_norm): LayerNorm((1024,), eps=1e-12, elementwise_affine=True)
          (dropout): Dropout(p=0.1, inplace=False)
        )
        (ff): XLNetFeedForward(
          (layer_norm): LayerNorm((1024,), eps=1e-12, elementwise_affine=True)
          (layer_1): Linear(in_features=1024, out_features=4096, bias=True)
          (layer_2): Linear(in_features=4096, out_features=1024, bias=True)
          (dropout): Dropout(p=0.1, inplace=False)
        )
        (dropout): Dropout(p=0.1, inplace=False)
      )
      (23): XLNetLayer(
        (rel_attn): XLNetRelativeAttention(
          (layer_norm): LayerNorm((1024,), eps=1e-12, elementwise_affine=True)
          (dropout): Dropout(p=0.1, inplace=False)
        )
        (ff): XLNetFeedForward(
          (layer_norm): LayerNorm((1024,), eps=1e-12, elementwise_affine=True)
          (layer_1): Linear(in_features=1024, out_features=4096, bias=True)
          (layer_2): Linear(in_features=4096, out_features=1024, bias=True)
          (dropout): Dropout(p=0.1, inplace=False)
        )
        (dropout): Dropout(p=0.1, inplace=False)
      )
    )
    (dropout): Dropout(p=0.1, inplace=False)
  )
  (sequence_summary): SequenceSummary(
    (summary): Linear(in_features=1024, out_features=1024, bias=True)
    (first_dropout): Identity()
    (last_dropout): Dropout(p=0.1, inplace=False)
  )
  (logits_proj): Linear(in_features=1024, out_features=1, bias=True)
)

XLNetForMultipleChoice._actual_script_module
XLNetForMultipleChoice.forward
  graph(%self.1 : __torch__.transformers.modeling_xlnet.XLNetForMultipleChoice,
        %input_ids.1 : Long(17:91, 7:13, 13:1),
        %token_type_ids.1 : Long(17:91, 7:13, 13:1)):
    %6349 : __torch__.torch.nn.modules.linear.Linear = prim::GetAttr[name="logits_proj"](%self.1)
…
