LongformerModel(
  (embeddings): LongformerEmbeddings(
    (word_embeddings): Embedding(30522, 768, padding_idx=1)
    (position_embeddings): Embedding(512, 768, padding_idx=1)
    (token_type_embeddings): Embedding(2, 768)
    (LayerNorm): LayerNorm((768,), eps=1e-12, elementwise_affine=True)
    (dropout): Dropout(p=0.1, inplace=False)
  )
  (encoder): LongformerEncoder(
    (layer): ModuleList(
      (0): LongformerLayer(
        (attention): LongformerAttention(
          (self): LongformerSelfAttention(
            (query): Linear(in_features=768, out_features=768, bias=True)
            (key): Linear(in_features=768, out_features=768, bias=True)
            (value): Linear(in_features=768, out_features=768, bias=True)
            (query_global): Linear(in_features=768, out_features=768, bias=True)
            (key_global): Linear(in_features=768, out_features=768, bias=True)
            (value_global): Linear(in_features=768, out_features=768, bias=True)
          )
          (output): LongformerSelfOutput(
            (dense): Linear(in_features=768, out_features=768, bias=True)
            (LayerNorm): LayerNorm((768,), eps=1e-12, elementwise_affine=True)
            (dropout): Dropout(p=0.1, inplace=False)
          )
        )
        (intermediate): LongformerIntermediate(
          (dense): Linear(in_features=768, out_features=3072, bias=True)
        )
        (output): LongformerOutput(
          (dense): Linear(in_features=3072, out_features=768, bias=True)
          (LayerNorm): LayerNorm((768,), eps=1e-12, elementwise_affine=True)
          (dropout): Dropout(p=0.1, inplace=False)
        )
      )
      (1): LongformerLayer(
        (attention): LongformerAttention(
          (self): LongformerSelfAttention(
            (query): Linear(in_features=768, out_features=768, bias=True)
            (key): Linear(in_features=768, out_features=768, bias=True)
            (value): Linear(in_features=768, out_features=768, bias=True)
            (query_global): Linear(in_features=768, out_features=768, bias=True)
            (key_global): Linear(in_features=768, out_features=768, bias=True)
            (value_global): Linear(in_features=768, out_features=768, bias=True)
          )
          (output): LongformerSelfOutput(
            (dense): Linear(in_features=768, out_features=768, bias=True)
            (LayerNorm): LayerNorm((768,), eps=1e-12, elementwise_affine=True)
            (dropout): Dropout(p=0.1, inplace=False)
          )
        )
        (intermediate): LongformerIntermediate(
          (dense): Linear(in_features=768, out_features=3072, bias=True)
        )
        (output): LongformerOutput(
          (dense): Linear(in_features=3072, out_features=768, bias=True)
          (LayerNorm): LayerNorm((768,), eps=1e-12, elementwise_affine=True)
          (dropout): Dropout(p=0.1, inplace=False)
        )
      )
      (2): LongformerLayer(
        (attention): LongformerAttention(
          (self): LongformerSelfAttention(
            (query): Linear(in_features=768, out_features=768, bias=True)
            (key): Linear(in_features=768, out_features=768, bias=True)
            (value): Linear(in_features=768, out_features=768, bias=True)
            (query_global): Linear(in_features=768, out_features=768, bias=True)
            (key_global): Linear(in_features=768, out_features=768, bias=True)
            (value_global): Linear(in_features=768, out_features=768, bias=True)
          )
          (output): LongformerSelfOutput(
            (dense): Linear(in_features=768, out_features=768, bias=True)
            (LayerNorm): LayerNorm((768,), eps=1e-12, elementwise_affine=True)
            (dropout): Dropout(p=0.1, inplace=False)
          )
        )
        (intermediate): LongformerIntermediate(
          (dense): Linear(in_features=768, out_features=3072, bias=True)
        )
        (output): LongformerOutput(
          (dense): Linear(in_features=3072, out_features=768, bias=True)
          (LayerNorm): LayerNorm((768,), eps=1e-12, elementwise_affine=True)
          (dropout): Dropout(p=0.1, inplace=False)
        )
      )
      (3): LongformerLayer(
        (attention): LongformerAttention(
          (self): LongformerSelfAttention(
            (query): Linear(in_features=768, out_features=768, bias=True)
            (key): Linear(in_features=768, out_features=768, bias=True)
            (value): Linear(in_features=768, out_features=768, bias=True)
            (query_global): Linear(in_features=768, out_features=768, bias=True)
            (key_global): Linear(in_features=768, out_features=768, bias=True)
            (value_global): Linear(in_features=768, out_features=768, bias=True)
          )
          (output): LongformerSelfOutput(
            (dense): Linear(in_features=768, out_features=768, bias=True)
            (LayerNorm): LayerNorm((768,), eps=1e-12, elementwise_affine=True)
            (dropout): Dropout(p=0.1, inplace=False)
          )
        )
        (intermediate): LongformerIntermediate(
          (dense): Linear(in_features=768, out_features=3072, bias=True)
        )
        (output): LongformerOutput(
          (dense): Linear(in_features=3072, out_features=768, bias=True)
          (LayerNorm): LayerNorm((768,), eps=1e-12, elementwise_affine=True)
          (dropout): Dropout(p=0.1, inplace=False)
        )
      )
      (4): LongformerLayer(
        (attention): LongformerAttention(
          (self): LongformerSelfAttention(
            (query): Linear(in_features=768, out_features=768, bias=True)
            (key): Linear(in_features=768, out_features=768, bias=True)
            (value): Linear(in_features=768, out_features=768, bias=True)
            (query_global): Linear(in_features=768, out_features=768, bias=True)
            (key_global): Linear(in_features=768, out_features=768, bias=True)
            (value_global): Linear(in_features=768, out_features=768, bias=True)
          )
          (output): LongformerSelfOutput(
            (dense): Linear(in_features=768, out_features=768, bias=True)
            (LayerNorm): LayerNorm((768,), eps=1e-12, elementwise_affine=True)
            (dropout): Dropout(p=0.1, inplace=False)
          )
        )
        (intermediate): LongformerIntermediate(
          (dense): Linear(in_features=768, out_features=3072, bias=True)
        )
        (output): LongformerOutput(
          (dense): Linear(in_features=3072, out_features=768, bias=True)
          (LayerNorm): LayerNorm((768,), eps=1e-12, elementwise_affine=True)
          (dropout): Dropout(p=0.1, inplace=False)
        )
      )
      (5): LongformerLayer(
        (attention): LongformerAttention(
          (self): LongformerSelfAttention(
            (query): Linear(in_features=768, out_features=768, bias=True)
            (key): Linear(in_features=768, out_features=768, bias=True)
            (value): Linear(in_features=768, out_features=768, bias=True)
            (query_global): Linear(in_features=768, out_features=768, bias=True)
            (key_global): Linear(in_features=768, out_features=768, bias=True)
            (value_global): Linear(in_features=768, out_features=768, bias=True)
          )
          (output): LongformerSelfOutput(
            (dense): Linear(in_features=768, out_features=768, bias=True)
            (LayerNorm): LayerNorm((768,), eps=1e-12, elementwise_affine=True)
            (dropout): Dropout(p=0.1, inplace=False)
          )
        )
        (intermediate): LongformerIntermediate(
          (dense): Linear(in_features=768, out_features=3072, bias=True)
        )
        (output): LongformerOutput(
          (dense): Linear(in_features=3072, out_features=768, bias=True)
          (LayerNorm): LayerNorm((768,), eps=1e-12, elementwise_affine=True)
          (dropout): Dropout(p=0.1, inplace=False)
        )
      )
      (6): LongformerLayer(
        (attention): LongformerAttention(
          (self): LongformerSelfAttention(
            (query): Linear(in_features=768, out_features=768, bias=True)
            (key): Linear(in_features=768, out_features=768, bias=True)
            (value): Linear(in_features=768, out_features=768, bias=True)
            (query_global): Linear(in_features=768, out_features=768, bias=True)
            (key_global): Linear(in_features=768, out_features=768, bias=True)
            (value_global): Linear(in_features=768, out_features=768, bias=True)
          )
          (output): LongformerSelfOutput(
            (dense): Linear(in_features=768, out_features=768, bias=True)
            (LayerNorm): LayerNorm((768,), eps=1e-12, elementwise_affine=True)
            (dropout): Dropout(p=0.1, inplace=False)
          )
        )
        (intermediate): LongformerIntermediate(
          (dense): Linear(in_features=768, out_features=3072, bias=True)
        )
        (output): LongformerOutput(
          (dense): Linear(in_features=3072, out_features=768, bias=True)
          (LayerNorm): LayerNorm((768,), eps=1e-12, elementwise_affine=True)
          (dropout): Dropout(p=0.1, inplace=False)
        )
      )
      (7): LongformerLayer(
        (attention): LongformerAttention(
          (self): LongformerSelfAttention(
            (query): Linear(in_features=768, out_features=768, bias=True)
            (key): Linear(in_features=768, out_features=768, bias=True)
            (value): Linear(in_features=768, out_features=768, bias=True)
            (query_global): Linear(in_features=768, out_features=768, bias=True)
            (key_global): Linear(in_features=768, out_features=768, bias=True)
            (value_global): Linear(in_features=768, out_features=768, bias=True)
          )
          (output): LongformerSelfOutput(
            (dense): Linear(in_features=768, out_features=768, bias=True)
            (LayerNorm): LayerNorm((768,), eps=1e-12, elementwise_affine=True)
            (dropout): Dropout(p=0.1, inplace=False)
          )
        )
        (intermediate): LongformerIntermediate(
          (dense): Linear(in_features=768, out_features=3072, bias=True)
        )
        (output): LongformerOutput(
          (dense): Linear(in_features=3072, out_features=768, bias=True)
          (LayerNorm): LayerNorm((768,), eps=1e-12, elementwise_affine=True)
          (dropout): Dropout(p=0.1, inplace=False)
        )
      )
      (8): LongformerLayer(
        (attention): LongformerAttention(
          (self): LongformerSelfAttention(
            (query): Linear(in_features=768, out_features=768, bias=True)
            (key): Linear(in_features=768, out_features=768, bias=True)
            (value): Linear(in_features=768, out_features=768, bias=True)
            (query_global): Linear(in_features=768, out_features=768, bias=True)
            (key_global): Linear(in_features=768, out_features=768, bias=True)
            (value_global): Linear(in_features=768, out_features=768, bias=True)
          )
          (output): LongformerSelfOutput(
            (dense): Linear(in_features=768, out_features=768, bias=True)
            (LayerNorm): LayerNorm((768,), eps=1e-12, elementwise_affine=True)
            (dropout): Dropout(p=0.1, inplace=False)
          )
        )
        (intermediate): LongformerIntermediate(
          (dense): Linear(in_features=768, out_features=3072, bias=True)
        )
        (output): LongformerOutput(
          (dense): Linear(in_features=3072, out_features=768, bias=True)
          (LayerNorm): LayerNorm((768,), eps=1e-12, elementwise_affine=True)
          (dropout): Dropout(p=0.1, inplace=False)
        )
      )
      (9): LongformerLayer(
        (attention): LongformerAttention(
          (self): LongformerSelfAttention(
            (query): Linear(in_features=768, out_features=768, bias=True)
            (key): Linear(in_features=768, out_features=768, bias=True)
            (value): Linear(in_features=768, out_features=768, bias=True)
            (query_global): Linear(in_features=768, out_features=768, bias=True)
            (key_global): Linear(in_features=768, out_features=768, bias=True)
            (value_global): Linear(in_features=768, out_features=768, bias=True)
          )
          (output): LongformerSelfOutput(
            (dense): Linear(in_features=768, out_features=768, bias=True)
            (LayerNorm): LayerNorm((768,), eps=1e-12, elementwise_affine=True)
            (dropout): Dropout(p=0.1, inplace=False)
          )
        )
        (intermediate): LongformerIntermediate(
          (dense): Linear(in_features=768, out_features=3072, bias=True)
        )
        (output): LongformerOutput(
          (dense): Linear(in_features=3072, out_features=768, bias=True)
          (LayerNorm): LayerNorm((768,), eps=1e-12, elementwise_affine=True)
          (dropout): Dropout(p=0.1, inplace=False)
        )
      )
      (10): LongformerLayer(
        (attention): LongformerAttention(
          (self): LongformerSelfAttention(
            (query): Linear(in_features=768, out_features=768, bias=True)
            (key): Linear(in_features=768, out_features=768, bias=True)
            (value): Linear(in_features=768, out_features=768, bias=True)
            (query_global): Linear(in_features=768, out_features=768, bias=True)
            (key_global): Linear(in_features=768, out_features=768, bias=True)
            (value_global): Linear(in_features=768, out_features=768, bias=True)
          )
          (output): LongformerSelfOutput(
            (dense): Linear(in_features=768, out_features=768, bias=True)
            (LayerNorm): LayerNorm((768,), eps=1e-12, elementwise_affine=True)
            (dropout): Dropout(p=0.1, inplace=False)
          )
        )
        (intermediate): LongformerIntermediate(
          (dense): Linear(in_features=768, out_features=3072, bias=True)
        )
        (output): LongformerOutput(
          (dense): Linear(in_features=3072, out_features=768, bias=True)
          (LayerNorm): LayerNorm((768,), eps=1e-12, elementwise_affine=True)
          (dropout): Dropout(p=0.1, inplace=False)
        )
      )
      (11): LongformerLayer(
        (attention): LongformerAttention(
          (self): LongformerSelfAttention(
            (query): Linear(in_features=768, out_features=768, bias=True)
            (key): Linear(in_features=768, out_features=768, bias=True)
            (value): Linear(in_features=768, out_features=768, bias=True)
            (query_global): Linear(in_features=768, out_features=768, bias=True)
            (key_global): Linear(in_features=768, out_features=768, bias=True)
            (value_global): Linear(in_features=768, out_features=768, bias=True)
          )
          (output): LongformerSelfOutput(
            (dense): Linear(in_features=768, out_features=768, bias=True)
            (LayerNorm): LayerNorm((768,), eps=1e-12, elementwise_affine=True)
            (dropout): Dropout(p=0.1, inplace=False)
          )
        )
        (intermediate): LongformerIntermediate(
          (dense): Linear(in_features=768, out_features=3072, bias=True)
        )
        (output): LongformerOutput(
          (dense): Linear(in_features=3072, out_features=768, bias=True)
          (LayerNorm): LayerNorm((768,), eps=1e-12, elementwise_affine=True)
          (dropout): Dropout(p=0.1, inplace=False)
        )
      )
    )
  )
  (pooler): LongformerPooler(
    (dense): Linear(in_features=768, out_features=768, bias=True)
    (activation): Tanh()
  )
)

LongformerModel._actual_script_module
LongformerModel.forward
  graph(%self.1 : __torch__.transformers.modeling_longformer.LongformerModel,
        %input_ids.1 : Long(17:13, 13:1),
        %input.1 : Long(17:13, 13:1)):
    %18861 : __torch__.transformers.modeling_longformer.LongformerPooler = prim::GetAttr[name="pooler"](%self.1)
…
