FunnelForMaskedLM(
  (funnel): FunnelModel(
    (embeddings): FunnelEmbeddings(
      (word_embeddings): Embedding(30522, 768)
      (layer_norm): LayerNorm((768,), eps=1e-09, elementwise_affine=True)
      (dropout): Dropout(p=0.1, inplace=False)
    )
    (encoder): FunnelEncoder(
      (attention_structure): FunnelAttentionStructure(
        (sin_dropout): Dropout(p=0.1, inplace=False)
        (cos_dropout): Dropout(p=0.1, inplace=False)
      )
      (blocks): ModuleList(
        (0): ModuleList(
          (0): FunnelLayer(
            (attention): FunnelRelMultiheadAttention(
              (hidden_dropout): Dropout(p=0.1, inplace=False)
              (attention_dropout): Dropout(p=0.1, inplace=False)
              (q_head): Linear(in_features=768, out_features=768, bias=False)
              (k_head): Linear(in_features=768, out_features=768, bias=True)
              (v_head): Linear(in_features=768, out_features=768, bias=True)
              (post_proj): Linear(in_features=768, out_features=768, bias=True)
              (layer_norm): LayerNorm((768,), eps=1e-09, elementwise_affine=True)
            )
            (ffn): FunnelPositionwiseFFN(
              (linear_1): Linear(in_features=768, out_features=3072, bias=True)
              (activation_dropout): Dropout(p=0.0, inplace=False)
              (linear_2): Linear(in_features=3072, out_features=768, bias=True)
              (dropout): Dropout(p=0.1, inplace=False)
              (layer_norm): LayerNorm((768,), eps=1e-09, elementwise_affine=True)
            )
          )
          (1): FunnelLayer(
            (attention): FunnelRelMultiheadAttention(
              (hidden_dropout): Dropout(p=0.1, inplace=False)
              (attention_dropout): Dropout(p=0.1, inplace=False)
              (q_head): Linear(in_features=768, out_features=768, bias=False)
              (k_head): Linear(in_features=768, out_features=768, bias=True)
              (v_head): Linear(in_features=768, out_features=768, bias=True)
              (post_proj): Linear(in_features=768, out_features=768, bias=True)
              (layer_norm): LayerNorm((768,), eps=1e-09, elementwise_affine=True)
            )
            (ffn): FunnelPositionwiseFFN(
              (linear_1): Linear(in_features=768, out_features=3072, bias=True)
              (activation_dropout): Dropout(p=0.0, inplace=False)
              (linear_2): Linear(in_features=3072, out_features=768, bias=True)
              (dropout): Dropout(p=0.1, inplace=False)
              (layer_norm): LayerNorm((768,), eps=1e-09, elementwise_affine=True)
            )
          )
          (2): FunnelLayer(
            (attention): FunnelRelMultiheadAttention(
              (hidden_dropout): Dropout(p=0.1, inplace=False)
              (attention_dropout): Dropout(p=0.1, inplace=False)
              (q_head): Linear(in_features=768, out_features=768, bias=False)
              (k_head): Linear(in_features=768, out_features=768, bias=True)
              (v_head): Linear(in_features=768, out_features=768, bias=True)
              (post_proj): Linear(in_features=768, out_features=768, bias=True)
              (layer_norm): LayerNorm((768,), eps=1e-09, elementwise_affine=True)
            )
            (ffn): FunnelPositionwiseFFN(
              (linear_1): Linear(in_features=768, out_features=3072, bias=True)
              (activation_dropout): Dropout(p=0.0, inplace=False)
              (linear_2): Linear(in_features=3072, out_features=768, bias=True)
              (dropout): Dropout(p=0.1, inplace=False)
              (layer_norm): LayerNorm((768,), eps=1e-09, elementwise_affine=True)
            )
          )
          (3): FunnelLayer(
            (attention): FunnelRelMultiheadAttention(
              (hidden_dropout): Dropout(p=0.1, inplace=False)
              (attention_dropout): Dropout(p=0.1, inplace=False)
              (q_head): Linear(in_features=768, out_features=768, bias=False)
              (k_head): Linear(in_features=768, out_features=768, bias=True)
              (v_head): Linear(in_features=768, out_features=768, bias=True)
              (post_proj): Linear(in_features=768, out_features=768, bias=True)
              (layer_norm): LayerNorm((768,), eps=1e-09, elementwise_affine=True)
            )
            (ffn): FunnelPositionwiseFFN(
              (linear_1): Linear(in_features=768, out_features=3072, bias=True)
              (activation_dropout): Dropout(p=0.0, inplace=False)
              (linear_2): Linear(in_features=3072, out_features=768, bias=True)
              (dropout): Dropout(p=0.1, inplace=False)
              (layer_norm): LayerNorm((768,), eps=1e-09, elementwise_affine=True)
            )
          )
        )
        (1): ModuleList(
          (0): FunnelLayer(
            (attention): FunnelRelMultiheadAttention(
              (hidden_dropout): Dropout(p=0.1, inplace=False)
              (attention_dropout): Dropout(p=0.1, inplace=False)
              (q_head): Linear(in_features=768, out_features=768, bias=False)
              (k_head): Linear(in_features=768, out_features=768, bias=True)
              (v_head): Linear(in_features=768, out_features=768, bias=True)
              (post_proj): Linear(in_features=768, out_features=768, bias=True)
              (layer_norm): LayerNorm((768,), eps=1e-09, elementwise_affine=True)
            )
            (ffn): FunnelPositionwiseFFN(
              (linear_1): Linear(in_features=768, out_features=3072, bias=True)
              (activation_dropout): Dropout(p=0.0, inplace=False)
              (linear_2): Linear(in_features=3072, out_features=768, bias=True)
              (dropout): Dropout(p=0.1, inplace=False)
              (layer_norm): LayerNorm((768,), eps=1e-09, elementwise_affine=True)
            )
          )
          (1): FunnelLayer(
            (attention): FunnelRelMultiheadAttention(
              (hidden_dropout): Dropout(p=0.1, inplace=False)
              (attention_dropout): Dropout(p=0.1, inplace=False)
              (q_head): Linear(in_features=768, out_features=768, bias=False)
              (k_head): Linear(in_features=768, out_features=768, bias=True)
              (v_head): Linear(in_features=768, out_features=768, bias=True)
              (post_proj): Linear(in_features=768, out_features=768, bias=True)
              (layer_norm): LayerNorm((768,), eps=1e-09, elementwise_affine=True)
            )
            (ffn): FunnelPositionwiseFFN(
              (linear_1): Linear(in_features=768, out_features=3072, bias=True)
              (activation_dropout): Dropout(p=0.0, inplace=False)
              (linear_2): Linear(in_features=3072, out_features=768, bias=True)
              (dropout): Dropout(p=0.1, inplace=False)
              (layer_norm): LayerNorm((768,), eps=1e-09, elementwise_affine=True)
            )
          )
          (2): FunnelLayer(
            (attention): FunnelRelMultiheadAttention(
              (hidden_dropout): Dropout(p=0.1, inplace=False)
              (attention_dropout): Dropout(p=0.1, inplace=False)
              (q_head): Linear(in_features=768, out_features=768, bias=False)
              (k_head): Linear(in_features=768, out_features=768, bias=True)
              (v_head): Linear(in_features=768, out_features=768, bias=True)
              (post_proj): Linear(in_features=768, out_features=768, bias=True)
              (layer_norm): LayerNorm((768,), eps=1e-09, elementwise_affine=True)
            )
            (ffn): FunnelPositionwiseFFN(
              (linear_1): Linear(in_features=768, out_features=3072, bias=True)
              (activation_dropout): Dropout(p=0.0, inplace=False)
              (linear_2): Linear(in_features=3072, out_features=768, bias=True)
              (dropout): Dropout(p=0.1, inplace=False)
              (layer_norm): LayerNorm((768,), eps=1e-09, elementwise_affine=True)
            )
          )
          (3): FunnelLayer(
            (attention): FunnelRelMultiheadAttention(
              (hidden_dropout): Dropout(p=0.1, inplace=False)
              (attention_dropout): Dropout(p=0.1, inplace=False)
              (q_head): Linear(in_features=768, out_features=768, bias=False)
              (k_head): Linear(in_features=768, out_features=768, bias=True)
              (v_head): Linear(in_features=768, out_features=768, bias=True)
              (post_proj): Linear(in_features=768, out_features=768, bias=True)
              (layer_norm): LayerNorm((768,), eps=1e-09, elementwise_affine=True)
            )
            (ffn): FunnelPositionwiseFFN(
              (linear_1): Linear(in_features=768, out_features=3072, bias=True)
              (activation_dropout): Dropout(p=0.0, inplace=False)
              (linear_2): Linear(in_features=3072, out_features=768, bias=True)
              (dropout): Dropout(p=0.1, inplace=False)
              (layer_norm): LayerNorm((768,), eps=1e-09, elementwise_affine=True)
            )
          )
        )
        (2): ModuleList(
          (0): FunnelLayer(
            (attention): FunnelRelMultiheadAttention(
              (hidden_dropout): Dropout(p=0.1, inplace=False)
              (attention_dropout): Dropout(p=0.1, inplace=False)
              (q_head): Linear(in_features=768, out_features=768, bias=False)
              (k_head): Linear(in_features=768, out_features=768, bias=True)
              (v_head): Linear(in_features=768, out_features=768, bias=True)
              (post_proj): Linear(in_features=768, out_features=768, bias=True)
              (layer_norm): LayerNorm((768,), eps=1e-09, elementwise_affine=True)
            )
            (ffn): FunnelPositionwiseFFN(
              (linear_1): Linear(in_features=768, out_features=3072, bias=True)
              (activation_dropout): Dropout(p=0.0, inplace=False)
              (linear_2): Linear(in_features=3072, out_features=768, bias=True)
              (dropout): Dropout(p=0.1, inplace=False)
              (layer_norm): LayerNorm((768,), eps=1e-09, elementwise_affine=True)
            )
          )
          (1): FunnelLayer(
            (attention): FunnelRelMultiheadAttention(
              (hidden_dropout): Dropout(p=0.1, inplace=False)
              (attention_dropout): Dropout(p=0.1, inplace=False)
              (q_head): Linear(in_features=768, out_features=768, bias=False)
              (k_head): Linear(in_features=768, out_features=768, bias=True)
              (v_head): Linear(in_features=768, out_features=768, bias=True)
              (post_proj): Linear(in_features=768, out_features=768, bias=True)
              (layer_norm): LayerNorm((768,), eps=1e-09, elementwise_affine=True)
            )
            (ffn): FunnelPositionwiseFFN(
              (linear_1): Linear(in_features=768, out_features=3072, bias=True)
              (activation_dropout): Dropout(p=0.0, inplace=False)
              (linear_2): Linear(in_features=3072, out_features=768, bias=True)
              (dropout): Dropout(p=0.1, inplace=False)
              (layer_norm): LayerNorm((768,), eps=1e-09, elementwise_affine=True)
            )
          )
          (2): FunnelLayer(
            (attention): FunnelRelMultiheadAttention(
              (hidden_dropout): Dropout(p=0.1, inplace=False)
              (attention_dropout): Dropout(p=0.1, inplace=False)
              (q_head): Linear(in_features=768, out_features=768, bias=False)
              (k_head): Linear(in_features=768, out_features=768, bias=True)
              (v_head): Linear(in_features=768, out_features=768, bias=True)
              (post_proj): Linear(in_features=768, out_features=768, bias=True)
              (layer_norm): LayerNorm((768,), eps=1e-09, elementwise_affine=True)
            )
            (ffn): FunnelPositionwiseFFN(
              (linear_1): Linear(in_features=768, out_features=3072, bias=True)
              (activation_dropout): Dropout(p=0.0, inplace=False)
              (linear_2): Linear(in_features=3072, out_features=768, bias=True)
              (dropout): Dropout(p=0.1, inplace=False)
              (layer_norm): LayerNorm((768,), eps=1e-09, elementwise_affine=True)
            )
          )
          (3): FunnelLayer(
            (attention): FunnelRelMultiheadAttention(
              (hidden_dropout): Dropout(p=0.1, inplace=False)
              (attention_dropout): Dropout(p=0.1, inplace=False)
              (q_head): Linear(in_features=768, out_features=768, bias=False)
              (k_head): Linear(in_features=768, out_features=768, bias=True)
              (v_head): Linear(in_features=768, out_features=768, bias=True)
              (post_proj): Linear(in_features=768, out_features=768, bias=True)
              (layer_norm): LayerNorm((768,), eps=1e-09, elementwise_affine=True)
            )
            (ffn): FunnelPositionwiseFFN(
              (linear_1): Linear(in_features=768, out_features=3072, bias=True)
              (activation_dropout): Dropout(p=0.0, inplace=False)
              (linear_2): Linear(in_features=3072, out_features=768, bias=True)
              (dropout): Dropout(p=0.1, inplace=False)
              (layer_norm): LayerNorm((768,), eps=1e-09, elementwise_affine=True)
            )
          )
        )
      )
    )
    (decoder): FunnelDecoder(
      (attention_structure): FunnelAttentionStructure(
        (sin_dropout): Dropout(p=0.1, inplace=False)
        (cos_dropout): Dropout(p=0.1, inplace=False)
      )
      (layers): ModuleList(
        (0): FunnelLayer(
          (attention): FunnelRelMultiheadAttention(
            (hidden_dropout): Dropout(p=0.1, inplace=False)
            (attention_dropout): Dropout(p=0.1, inplace=False)
            (q_head): Linear(in_features=768, out_features=768, bias=False)
            (k_head): Linear(in_features=768, out_features=768, bias=True)
            (v_head): Linear(in_features=768, out_features=768, bias=True)
            (post_proj): Linear(in_features=768, out_features=768, bias=True)
            (layer_norm): LayerNorm((768,), eps=1e-09, elementwise_affine=True)
          )
          (ffn): FunnelPositionwiseFFN(
            (linear_1): Linear(in_features=768, out_features=3072, bias=True)
            (activation_dropout): Dropout(p=0.0, inplace=False)
            (linear_2): Linear(in_features=3072, out_features=768, bias=True)
            (dropout): Dropout(p=0.1, inplace=False)
            (layer_norm): LayerNorm((768,), eps=1e-09, elementwise_affine=True)
          )
        )
        (1): FunnelLayer(
          (attention): FunnelRelMultiheadAttention(
            (hidden_dropout): Dropout(p=0.1, inplace=False)
            (attention_dropout): Dropout(p=0.1, inplace=False)
            (q_head): Linear(in_features=768, out_features=768, bias=False)
            (k_head): Linear(in_features=768, out_features=768, bias=True)
            (v_head): Linear(in_features=768, out_features=768, bias=True)
            (post_proj): Linear(in_features=768, out_features=768, bias=True)
            (layer_norm): LayerNorm((768,), eps=1e-09, elementwise_affine=True)
          )
          (ffn): FunnelPositionwiseFFN(
            (linear_1): Linear(in_features=768, out_features=3072, bias=True)
            (activation_dropout): Dropout(p=0.0, inplace=False)
            (linear_2): Linear(in_features=3072, out_features=768, bias=True)
            (dropout): Dropout(p=0.1, inplace=False)
            (layer_norm): LayerNorm((768,), eps=1e-09, elementwise_affine=True)
          )
        )
      )
    )
  )
  (lm_head): Linear(in_features=768, out_features=30522, bias=True)
)

FunnelForMaskedLM._actual_script_module
FunnelForMaskedLM.forward
  graph(%self.1 : __torch__.transformers.modeling_funnel.FunnelForMaskedLM,
        %input_ids : Long(17:13, 13:1),
        %attention_mask.1 : Long(17:13, 13:1)):
    %7303 : __torch__.torch.nn.modules.linear.Linear = prim::GetAttr[name="lm_head"](%self.1)
    %7300 : __torch__.transformers.modeling_funnel.FunnelModel = prim::GetAttr[name="funnel"](%self.1)
…
